{"format": "graph-model", "generatedBy": "1.14.0", "convertedBy": "TensorFlow.js Converter v1.2.2.1", "modelTopology": {"node": [{"name": "final_retrain_ops/biases/final_biases", "op": "Const", "attr": {"value": {"tensor": {"dtype": "DT_FLOAT", "tensorShape": {"dim": [{"size": "42"}]}}}, "dtype": {"type": "DT_FLOAT"}}}, {"name": "final_retrain_ops/weights/final_weights", "op": "Const", "attr": {"value": {"tensor": {"dtype": "DT_FLOAT", "tensorShape": {"dim": [{"size": "1001"}, {"size": "42"}]}}}, "dtype": {"type": "DT_FLOAT"}}}, {"name": "module/MobilenetV2/Logits/Conv2d_1c_1x1/biases", "op": "Const", "attr": {"value": {"tensor": {"dtype": "DT_FLOAT", "tensorShape": {"dim": [{"size": "1001"}]}}}, "dtype": {"type": "DT_FLOAT"}}}, {"name": "module/MobilenetV2/Logits/Conv2d_1c_1x1/weights", "op": "Const", "attr": {"value": {"tensor": {"dtype": "DT_FLOAT", "tensorShape": {"dim": [{"size": "1"}, {"size": "1"}, {"size": "1280"}, {"size": "1001"}]}}}, "dtype": {"type": "DT_FLOAT"}}}, {"name": "module_apply_default/MobilenetV2/Conv_1/BatchNorm/FusedBatchNorm/Offset", "op": "Const", "attr": {"value": {"tensor": {"dtype": "DT_FLOAT", "tensorShape": {"dim": [{"size": "1280"}]}}}, "dtype": {"type": "DT_FLOAT"}}}, {"name": "module_apply_default/MobilenetV2/Conv_1/Conv2D/merged_input", "op": "Const", "attr": {"value": {"tensor": {"dtype": "DT_FLOAT", "tensorShape": {"dim": [{"size": "1"}, {"size": "1"}, {"size": "320"}, {"size": "1280"}]}}}, "dtype": {"type": "DT_FLOAT"}}}, {"name": "module_apply_default/MobilenetV2/expanded_conv_16/project/BatchNorm/FusedBatchNorm/Offset", "op": "Const", "attr": {"value": {"tensor": {"dtype": "DT_FLOAT", "tensorShape": {"dim": [{"size": "320"}]}}}, "dtype": {"type": "DT_FLOAT"}}}, {"name": "module_apply_default/MobilenetV2/expanded_conv_16/project/Conv2D/merged_input", "op": "Const", "attr": {"value": {"tensor": {"dtype": "DT_FLOAT", "tensorShape": {"dim": [{"size": "1"}, {"size": "1"}, {"size": "960"}, {"size": "320"}]}}}, "dtype": {"type": "DT_FLOAT"}}}, {"name": "module_apply_default/MobilenetV2/expanded_conv_16/depthwise/BatchNorm/FusedBatchNorm/Offset", "op": "Const", "attr": {"value": {"tensor": {"dtype": "DT_FLOAT", "tensorShape": {"dim": [{"size": "960"}]}}}, "dtype": {"type": "DT_FLOAT"}}}, {"name": "module/MobilenetV2/expanded_conv_16/depthwise/depthwise_weights", "op": "Const", "attr": {"value": {"tensor": {"dtype": "DT_FLOAT", "tensorShape": {"dim": [{"size": "3"}, {"size": "3"}, {"size": "960"}, {"size": "1"}]}}}, "dtype": {"type": "DT_FLOAT"}}}, {"name": "module_apply_default/MobilenetV2/expanded_conv_16/expand/BatchNorm/FusedBatchNorm/Offset", "op": "Const", "attr": {"dtype": {"type": "DT_FLOAT"}, "value": {"tensor": {"dtype": "DT_FLOAT", "tensorShape": {"dim": [{"size": "960"}]}}}}}, {"name": "module_apply_default/MobilenetV2/expanded_conv_16/expand/Conv2D/merged_input", "op": "Const", "attr": {"value": {"tensor": {"dtype": "DT_FLOAT", "tensorShape": {"dim": [{"size": "1"}, {"size": "1"}, {"size": "160"}, {"size": "960"}]}}}, "dtype": {"type": "DT_FLOAT"}}}, {"name": "module_apply_default/MobilenetV2/expanded_conv_15/project/BatchNorm/FusedBatchNorm/Offset", "op": "Const", "attr": {"value": {"tensor": {"dtype": "DT_FLOAT", "tensorShape": {"dim": [{"size": "160"}]}}}, "dtype": {"type": "DT_FLOAT"}}}, {"name": "module_apply_default/MobilenetV2/expanded_conv_15/project/Conv2D/merged_input", "op": "Const", "attr": {"value": {"tensor": {"dtype": "DT_FLOAT", "tensorShape": {"dim": [{"size": "1"}, {"size": "1"}, {"size": "960"}, {"size": "160"}]}}}, "dtype": {"type": "DT_FLOAT"}}}, {"name": "module_apply_default/MobilenetV2/expanded_conv_15/depthwise/BatchNorm/FusedBatchNorm/Offset", "op": "Const", "attr": {"value": {"tensor": {"dtype": "DT_FLOAT", "tensorShape": {"dim": [{"size": "960"}]}}}, "dtype": {"type": "DT_FLOAT"}}}, {"name": "module/MobilenetV2/expanded_conv_15/depthwise/depthwise_weights", "op": "Const", "attr": {"value": {"tensor": {"dtype": "DT_FLOAT", "tensorShape": {"dim": [{"size": "3"}, {"size": "3"}, {"size": "960"}, {"size": "1"}]}}}, "dtype": {"type": "DT_FLOAT"}}}, {"name": "module_apply_default/MobilenetV2/expanded_conv_15/expand/BatchNorm/FusedBatchNorm/Offset", "op": "Const", "attr": {"value": {"tensor": {"dtype": "DT_FLOAT", "tensorShape": {"dim": [{"size": "960"}]}}}, "dtype": {"type": "DT_FLOAT"}}}, {"name": "module_apply_default/MobilenetV2/expanded_conv_15/expand/Conv2D/merged_input", "op": "Const", "attr": {"value": {"tensor": {"dtype": "DT_FLOAT", "tensorShape": {"dim": [{"size": "1"}, {"size": "1"}, {"size": "160"}, {"size": "960"}]}}}, "dtype": {"type": "DT_FLOAT"}}}, {"name": "module_apply_default/MobilenetV2/expanded_conv_14/project/BatchNorm/FusedBatchNorm/Offset", "op": "Const", "attr": {"value": {"tensor": {"dtype": "DT_FLOAT", "tensorShape": {"dim": [{"size": "160"}]}}}, "dtype": {"type": "DT_FLOAT"}}}, {"name": "module_apply_default/MobilenetV2/expanded_conv_14/project/Conv2D/merged_input", "op": "Const", "attr": {"value": {"tensor": {"dtype": "DT_FLOAT", "tensorShape": {"dim": [{"size": "1"}, {"size": "1"}, {"size": "960"}, {"size": "160"}]}}}, "dtype": {"type": "DT_FLOAT"}}}, {"name": "module_apply_default/MobilenetV2/expanded_conv_14/depthwise/BatchNorm/FusedBatchNorm/Offset", "op": "Const", "attr": {"value": {"tensor": {"dtype": "DT_FLOAT", "tensorShape": {"dim": [{"size": "960"}]}}}, "dtype": {"type": "DT_FLOAT"}}}, {"name": "module/MobilenetV2/expanded_conv_14/depthwise/depthwise_weights", "op": "Const", "attr": {"value": {"tensor": {"dtype": "DT_FLOAT", "tensorShape": {"dim": [{"size": "3"}, {"size": "3"}, {"size": "960"}, {"size": "1"}]}}}, "dtype": {"type": "DT_FLOAT"}}}, {"name": "module_apply_default/MobilenetV2/expanded_conv_14/expand/BatchNorm/FusedBatchNorm/Offset", "op": "Const", "attr": {"value": {"tensor": {"dtype": "DT_FLOAT", "tensorShape": {"dim": [{"size": "960"}]}}}, "dtype": {"type": "DT_FLOAT"}}}, {"name": "module_apply_default/MobilenetV2/expanded_conv_14/expand/Conv2D/merged_input", "op": "Const", "attr": {"value": {"tensor": {"dtype": "DT_FLOAT", "tensorShape": {"dim": [{"size": "1"}, {"size": "1"}, {"size": "160"}, {"size": "960"}]}}}, "dtype": {"type": "DT_FLOAT"}}}, {"name": "module_apply_default/MobilenetV2/expanded_conv_13/project/BatchNorm/FusedBatchNorm/Offset", "op": "Const", "attr": {"value": {"tensor": {"dtype": "DT_FLOAT", "tensorShape": {"dim": [{"size": "160"}]}}}, "dtype": {"type": "DT_FLOAT"}}}, {"name": "module_apply_default/MobilenetV2/expanded_conv_13/project/Conv2D/merged_input", "op": "Const", "attr": {"value": {"tensor": {"dtype": "DT_FLOAT", "tensorShape": {"dim": [{"size": "1"}, {"size": "1"}, {"size": "576"}, {"size": "160"}]}}}, "dtype": {"type": "DT_FLOAT"}}}, {"name": "module_apply_default/MobilenetV2/expanded_conv_13/depthwise/BatchNorm/FusedBatchNorm/Offset", "op": "Const", "attr": {"value": {"tensor": {"dtype": "DT_FLOAT", "tensorShape": {"dim": [{"size": "576"}]}}}, "dtype": {"type": "DT_FLOAT"}}}, {"name": "module/MobilenetV2/expanded_conv_13/depthwise/depthwise_weights", "op": "Const", "attr": {"value": {"tensor": {"dtype": "DT_FLOAT", "tensorShape": {"dim": [{"size": "3"}, {"size": "3"}, {"size": "576"}, {"size": "1"}]}}}, "dtype": {"type": "DT_FLOAT"}}}, {"name": "module_apply_default/MobilenetV2/expanded_conv_13/expand/BatchNorm/FusedBatchNorm/Offset", "op": "Const", "attr": {"value": {"tensor": {"dtype": "DT_FLOAT", "tensorShape": {"dim": [{"size": "576"}]}}}, "dtype": {"type": "DT_FLOAT"}}}, {"name": "module_apply_default/MobilenetV2/expanded_conv_13/expand/Conv2D/merged_input", "op": "Const", "attr": {"value": {"tensor": {"dtype": "DT_FLOAT", "tensorShape": {"dim": [{"size": "1"}, {"size": "1"}, {"size": "96"}, {"size": "576"}]}}}, "dtype": {"type": "DT_FLOAT"}}}, {"name": "module_apply_default/MobilenetV2/expanded_conv_12/project/BatchNorm/FusedBatchNorm/Offset", "op": "Const", "attr": {"value": {"tensor": {"dtype": "DT_FLOAT", "tensorShape": {"dim": [{"size": "96"}]}}}, "dtype": {"type": "DT_FLOAT"}}}, {"name": "module_apply_default/MobilenetV2/expanded_conv_12/project/Conv2D/merged_input", "op": "Const", "attr": {"value": {"tensor": {"dtype": "DT_FLOAT", "tensorShape": {"dim": [{"size": "1"}, {"size": "1"}, {"size": "576"}, {"size": "96"}]}}}, "dtype": {"type": "DT_FLOAT"}}}, {"name": "module_apply_default/MobilenetV2/expanded_conv_12/depthwise/BatchNorm/FusedBatchNorm/Offset", "op": "Const", "attr": {"value": {"tensor": {"dtype": "DT_FLOAT", "tensorShape": {"dim": [{"size": "576"}]}}}, "dtype": {"type": "DT_FLOAT"}}}, {"name": "module/MobilenetV2/expanded_conv_12/depthwise/depthwise_weights", "op": "Const", "attr": {"value": {"tensor": {"dtype": "DT_FLOAT", "tensorShape": {"dim": [{"size": "3"}, {"size": "3"}, {"size": "576"}, {"size": "1"}]}}}, "dtype": {"type": "DT_FLOAT"}}}, {"name": "module_apply_default/MobilenetV2/expanded_conv_12/expand/BatchNorm/FusedBatchNorm/Offset", "op": "Const", "attr": {"value": {"tensor": {"dtype": "DT_FLOAT", "tensorShape": {"dim": [{"size": "576"}]}}}, "dtype": {"type": "DT_FLOAT"}}}, {"name": "module_apply_default/MobilenetV2/expanded_conv_12/expand/Conv2D/merged_input", "op": "Const", "attr": {"value": {"tensor": {"dtype": "DT_FLOAT", "tensorShape": {"dim": [{"size": "1"}, {"size": "1"}, {"size": "96"}, {"size": "576"}]}}}, "dtype": {"type": "DT_FLOAT"}}}, {"name": "module_apply_default/MobilenetV2/expanded_conv_11/project/BatchNorm/FusedBatchNorm/Offset", "op": "Const", "attr": {"value": {"tensor": {"dtype": "DT_FLOAT", "tensorShape": {"dim": [{"size": "96"}]}}}, "dtype": {"type": "DT_FLOAT"}}}, {"name": "module_apply_default/MobilenetV2/expanded_conv_11/project/Conv2D/merged_input", "op": "Const", "attr": {"value": {"tensor": {"dtype": "DT_FLOAT", "tensorShape": {"dim": [{"size": "1"}, {"size": "1"}, {"size": "576"}, {"size": "96"}]}}}, "dtype": {"type": "DT_FLOAT"}}}, {"name": "module_apply_default/MobilenetV2/expanded_conv_11/depthwise/BatchNorm/FusedBatchNorm/Offset", "op": "Const", "attr": {"value": {"tensor": {"dtype": "DT_FLOAT", "tensorShape": {"dim": [{"size": "576"}]}}}, "dtype": {"type": "DT_FLOAT"}}}, {"name": "module/MobilenetV2/expanded_conv_11/depthwise/depthwise_weights", "op": "Const", "attr": {"value": {"tensor": {"dtype": "DT_FLOAT", "tensorShape": {"dim": [{"size": "3"}, {"size": "3"}, {"size": "576"}, {"size": "1"}]}}}, "dtype": {"type": "DT_FLOAT"}}}, {"name": "module_apply_default/MobilenetV2/expanded_conv_11/expand/BatchNorm/FusedBatchNorm/Offset", "op": "Const", "attr": {"value": {"tensor": {"dtype": "DT_FLOAT", "tensorShape": {"dim": [{"size": "576"}]}}}, "dtype": {"type": "DT_FLOAT"}}}, {"name": "module_apply_default/MobilenetV2/expanded_conv_11/expand/Conv2D/merged_input", "op": "Const", "attr": {"value": {"tensor": {"dtype": "DT_FLOAT", "tensorShape": {"dim": [{"size": "1"}, {"size": "1"}, {"size": "96"}, {"size": "576"}]}}}, "dtype": {"type": "DT_FLOAT"}}}, {"name": "module_apply_default/MobilenetV2/expanded_conv_10/project/BatchNorm/FusedBatchNorm/Offset", "op": "Const", "attr": {"value": {"tensor": {"dtype": "DT_FLOAT", "tensorShape": {"dim": [{"size": "96"}]}}}, "dtype": {"type": "DT_FLOAT"}}}, {"name": "module_apply_default/MobilenetV2/expanded_conv_10/project/Conv2D/merged_input", "op": "Const", "attr": {"value": {"tensor": {"dtype": "DT_FLOAT", "tensorShape": {"dim": [{"size": "1"}, {"size": "1"}, {"size": "384"}, {"size": "96"}]}}}, "dtype": {"type": "DT_FLOAT"}}}, {"name": "module_apply_default/MobilenetV2/expanded_conv_10/depthwise/BatchNorm/FusedBatchNorm/Offset", "op": "Const", "attr": {"value": {"tensor": {"dtype": "DT_FLOAT", "tensorShape": {"dim": [{"size": "384"}]}}}, "dtype": {"type": "DT_FLOAT"}}}, {"name": "module/MobilenetV2/expanded_conv_10/depthwise/depthwise_weights", "op": "Const", "attr": {"value": {"tensor": {"dtype": "DT_FLOAT", "tensorShape": {"dim": [{"size": "3"}, {"size": "3"}, {"size": "384"}, {"size": "1"}]}}}, "dtype": {"type": "DT_FLOAT"}}}, {"name": "module_apply_default/MobilenetV2/expanded_conv_10/expand/BatchNorm/FusedBatchNorm/Offset", "op": "Const", "attr": {"value": {"tensor": {"dtype": "DT_FLOAT", "tensorShape": {"dim": [{"size": "384"}]}}}, "dtype": {"type": "DT_FLOAT"}}}, {"name": "module_apply_default/MobilenetV2/expanded_conv_10/expand/Conv2D/merged_input", "op": "Const", "attr": {"value": {"tensor": {"dtype": "DT_FLOAT", "tensorShape": {"dim": [{"size": "1"}, {"size": "1"}, {"size": "64"}, {"size": "384"}]}}}, "dtype": {"type": "DT_FLOAT"}}}, {"name": "module_apply_default/MobilenetV2/expanded_conv_9/project/BatchNorm/FusedBatchNorm/Offset", "op": "Const", "attr": {"value": {"tensor": {"dtype": "DT_FLOAT", "tensorShape": {"dim": [{"size": "64"}]}}}, "dtype": {"type": "DT_FLOAT"}}}, {"name": "module_apply_default/MobilenetV2/expanded_conv_9/project/Conv2D/merged_input", "op": "Const", "attr": {"value": {"tensor": {"dtype": "DT_FLOAT", "tensorShape": {"dim": [{"size": "1"}, {"size": "1"}, {"size": "384"}, {"size": "64"}]}}}, "dtype": {"type": "DT_FLOAT"}}}, {"name": "module_apply_default/MobilenetV2/expanded_conv_9/depthwise/BatchNorm/FusedBatchNorm/Offset", "op": "Const", "attr": {"value": {"tensor": {"dtype": "DT_FLOAT", "tensorShape": {"dim": [{"size": "384"}]}}}, "dtype": {"type": "DT_FLOAT"}}}, {"name": "module/MobilenetV2/expanded_conv_9/depthwise/depthwise_weights", "op": "Const", "attr": {"value": {"tensor": {"dtype": "DT_FLOAT", "tensorShape": {"dim": [{"size": "3"}, {"size": "3"}, {"size": "384"}, {"size": "1"}]}}}, "dtype": {"type": "DT_FLOAT"}}}, {"name": "module_apply_default/MobilenetV2/expanded_conv_9/expand/BatchNorm/FusedBatchNorm/Offset", "op": "Const", "attr": {"value": {"tensor": {"dtype": "DT_FLOAT", "tensorShape": {"dim": [{"size": "384"}]}}}, "dtype": {"type": "DT_FLOAT"}}}, {"name": "module_apply_default/MobilenetV2/expanded_conv_9/expand/Conv2D/merged_input", "op": "Const", "attr": {"value": {"tensor": {"dtype": "DT_FLOAT", "tensorShape": {"dim": [{"size": "1"}, {"size": "1"}, {"size": "64"}, {"size": "384"}]}}}, "dtype": {"type": "DT_FLOAT"}}}, {"name": "module_apply_default/MobilenetV2/expanded_conv_8/project/BatchNorm/FusedBatchNorm/Offset", "op": "Const", "attr": {"value": {"tensor": {"dtype": "DT_FLOAT", "tensorShape": {"dim": [{"size": "64"}]}}}, "dtype": {"type": "DT_FLOAT"}}}, {"name": "module_apply_default/MobilenetV2/expanded_conv_8/project/Conv2D/merged_input", "op": "Const", "attr": {"value": {"tensor": {"dtype": "DT_FLOAT", "tensorShape": {"dim": [{"size": "1"}, {"size": "1"}, {"size": "384"}, {"size": "64"}]}}}, "dtype": {"type": "DT_FLOAT"}}}, {"name": "module_apply_default/MobilenetV2/expanded_conv_8/depthwise/BatchNorm/FusedBatchNorm/Offset", "op": "Const", "attr": {"value": {"tensor": {"dtype": "DT_FLOAT", "tensorShape": {"dim": [{"size": "384"}]}}}, "dtype": {"type": "DT_FLOAT"}}}, {"name": "module/MobilenetV2/expanded_conv_8/depthwise/depthwise_weights", "op": "Const", "attr": {"value": {"tensor": {"dtype": "DT_FLOAT", "tensorShape": {"dim": [{"size": "3"}, {"size": "3"}, {"size": "384"}, {"size": "1"}]}}}, "dtype": {"type": "DT_FLOAT"}}}, {"name": "module_apply_default/MobilenetV2/expanded_conv_8/expand/BatchNorm/FusedBatchNorm/Offset", "op": "Const", "attr": {"value": {"tensor": {"dtype": "DT_FLOAT", "tensorShape": {"dim": [{"size": "384"}]}}}, "dtype": {"type": "DT_FLOAT"}}}, {"name": "module_apply_default/MobilenetV2/expanded_conv_8/expand/Conv2D/merged_input", "op": "Const", "attr": {"value": {"tensor": {"dtype": "DT_FLOAT", "tensorShape": {"dim": [{"size": "1"}, {"size": "1"}, {"size": "64"}, {"size": "384"}]}}}, "dtype": {"type": "DT_FLOAT"}}}, {"name": "module_apply_default/MobilenetV2/expanded_conv_7/project/BatchNorm/FusedBatchNorm/Offset", "op": "Const", "attr": {"value": {"tensor": {"dtype": "DT_FLOAT", "tensorShape": {"dim": [{"size": "64"}]}}}, "dtype": {"type": "DT_FLOAT"}}}, {"name": "module_apply_default/MobilenetV2/expanded_conv_7/project/Conv2D/merged_input", "op": "Const", "attr": {"value": {"tensor": {"dtype": "DT_FLOAT", "tensorShape": {"dim": [{"size": "1"}, {"size": "1"}, {"size": "384"}, {"size": "64"}]}}}, "dtype": {"type": "DT_FLOAT"}}}, {"name": "module_apply_default/MobilenetV2/expanded_conv_7/depthwise/BatchNorm/FusedBatchNorm/Offset", "op": "Const", "attr": {"value": {"tensor": {"dtype": "DT_FLOAT", "tensorShape": {"dim": [{"size": "384"}]}}}, "dtype": {"type": "DT_FLOAT"}}}, {"name": "module/MobilenetV2/expanded_conv_7/depthwise/depthwise_weights", "op": "Const", "attr": {"value": {"tensor": {"dtype": "DT_FLOAT", "tensorShape": {"dim": [{"size": "3"}, {"size": "3"}, {"size": "384"}, {"size": "1"}]}}}, "dtype": {"type": "DT_FLOAT"}}}, {"name": "module_apply_default/MobilenetV2/expanded_conv_7/expand/BatchNorm/FusedBatchNorm/Offset", "op": "Const", "attr": {"value": {"tensor": {"dtype": "DT_FLOAT", "tensorShape": {"dim": [{"size": "384"}]}}}, "dtype": {"type": "DT_FLOAT"}}}, {"name": "module_apply_default/MobilenetV2/expanded_conv_7/expand/Conv2D/merged_input", "op": "Const", "attr": {"value": {"tensor": {"dtype": "DT_FLOAT", "tensorShape": {"dim": [{"size": "1"}, {"size": "1"}, {"size": "64"}, {"size": "384"}]}}}, "dtype": {"type": "DT_FLOAT"}}}, {"name": "module_apply_default/MobilenetV2/expanded_conv_6/project/BatchNorm/FusedBatchNorm/Offset", "op": "Const", "attr": {"value": {"tensor": {"dtype": "DT_FLOAT", "tensorShape": {"dim": [{"size": "64"}]}}}, "dtype": {"type": "DT_FLOAT"}}}, {"name": "module_apply_default/MobilenetV2/expanded_conv_6/project/Conv2D/merged_input", "op": "Const", "attr": {"value": {"tensor": {"dtype": "DT_FLOAT", "tensorShape": {"dim": [{"size": "1"}, {"size": "1"}, {"size": "192"}, {"size": "64"}]}}}, "dtype": {"type": "DT_FLOAT"}}}, {"name": "module_apply_default/MobilenetV2/expanded_conv_6/depthwise/BatchNorm/FusedBatchNorm/Offset", "op": "Const", "attr": {"value": {"tensor": {"dtype": "DT_FLOAT", "tensorShape": {"dim": [{"size": "192"}]}}}, "dtype": {"type": "DT_FLOAT"}}}, {"name": "module/MobilenetV2/expanded_conv_6/depthwise/depthwise_weights", "op": "Const", "attr": {"value": {"tensor": {"dtype": "DT_FLOAT", "tensorShape": {"dim": [{"size": "3"}, {"size": "3"}, {"size": "192"}, {"size": "1"}]}}}, "dtype": {"type": "DT_FLOAT"}}}, {"name": "module_apply_default/MobilenetV2/expanded_conv_6/expand/BatchNorm/FusedBatchNorm/Offset", "op": "Const", "attr": {"value": {"tensor": {"dtype": "DT_FLOAT", "tensorShape": {"dim": [{"size": "192"}]}}}, "dtype": {"type": "DT_FLOAT"}}}, {"name": "module_apply_default/MobilenetV2/expanded_conv_6/expand/Conv2D/merged_input", "op": "Const", "attr": {"value": {"tensor": {"dtype": "DT_FLOAT", "tensorShape": {"dim": [{"size": "1"}, {"size": "1"}, {"size": "32"}, {"size": "192"}]}}}, "dtype": {"type": "DT_FLOAT"}}}, {"name": "module_apply_default/MobilenetV2/expanded_conv_5/project/BatchNorm/FusedBatchNorm/Offset", "op": "Const", "attr": {"value": {"tensor": {"dtype": "DT_FLOAT", "tensorShape": {"dim": [{"size": "32"}]}}}, "dtype": {"type": "DT_FLOAT"}}}, {"name": "module_apply_default/MobilenetV2/expanded_conv_5/project/Conv2D/merged_input", "op": "Const", "attr": {"value": {"tensor": {"dtype": "DT_FLOAT", "tensorShape": {"dim": [{"size": "1"}, {"size": "1"}, {"size": "192"}, {"size": "32"}]}}}, "dtype": {"type": "DT_FLOAT"}}}, {"name": "module_apply_default/MobilenetV2/expanded_conv_5/depthwise/BatchNorm/FusedBatchNorm/Offset", "op": "Const", "attr": {"value": {"tensor": {"dtype": "DT_FLOAT", "tensorShape": {"dim": [{"size": "192"}]}}}, "dtype": {"type": "DT_FLOAT"}}}, {"name": "module/MobilenetV2/expanded_conv_5/depthwise/depthwise_weights", "op": "Const", "attr": {"value": {"tensor": {"dtype": "DT_FLOAT", "tensorShape": {"dim": [{"size": "3"}, {"size": "3"}, {"size": "192"}, {"size": "1"}]}}}, "dtype": {"type": "DT_FLOAT"}}}, {"name": "module_apply_default/MobilenetV2/expanded_conv_5/expand/BatchNorm/FusedBatchNorm/Offset", "op": "Const", "attr": {"value": {"tensor": {"dtype": "DT_FLOAT", "tensorShape": {"dim": [{"size": "192"}]}}}, "dtype": {"type": "DT_FLOAT"}}}, {"name": "module_apply_default/MobilenetV2/expanded_conv_5/expand/Conv2D/merged_input", "op": "Const", "attr": {"value": {"tensor": {"dtype": "DT_FLOAT", "tensorShape": {"dim": [{"size": "1"}, {"size": "1"}, {"size": "32"}, {"size": "192"}]}}}, "dtype": {"type": "DT_FLOAT"}}}, {"name": "module_apply_default/MobilenetV2/expanded_conv_4/project/BatchNorm/FusedBatchNorm/Offset", "op": "Const", "attr": {"value": {"tensor": {"dtype": "DT_FLOAT", "tensorShape": {"dim": [{"size": "32"}]}}}, "dtype": {"type": "DT_FLOAT"}}}, {"name": "module_apply_default/MobilenetV2/expanded_conv_4/project/Conv2D/merged_input", "op": "Const", "attr": {"value": {"tensor": {"dtype": "DT_FLOAT", "tensorShape": {"dim": [{"size": "1"}, {"size": "1"}, {"size": "192"}, {"size": "32"}]}}}, "dtype": {"type": "DT_FLOAT"}}}, {"name": "module_apply_default/MobilenetV2/expanded_conv_4/depthwise/BatchNorm/FusedBatchNorm/Offset", "op": "Const", "attr": {"value": {"tensor": {"dtype": "DT_FLOAT", "tensorShape": {"dim": [{"size": "192"}]}}}, "dtype": {"type": "DT_FLOAT"}}}, {"name": "module/MobilenetV2/expanded_conv_4/depthwise/depthwise_weights", "op": "Const", "attr": {"value": {"tensor": {"dtype": "DT_FLOAT", "tensorShape": {"dim": [{"size": "3"}, {"size": "3"}, {"size": "192"}, {"size": "1"}]}}}, "dtype": {"type": "DT_FLOAT"}}}, {"name": "module_apply_default/MobilenetV2/expanded_conv_4/expand/BatchNorm/FusedBatchNorm/Offset", "op": "Const", "attr": {"value": {"tensor": {"dtype": "DT_FLOAT", "tensorShape": {"dim": [{"size": "192"}]}}}, "dtype": {"type": "DT_FLOAT"}}}, {"name": "module_apply_default/MobilenetV2/expanded_conv_4/expand/Conv2D/merged_input", "op": "Const", "attr": {"value": {"tensor": {"dtype": "DT_FLOAT", "tensorShape": {"dim": [{"size": "1"}, {"size": "1"}, {"size": "32"}, {"size": "192"}]}}}, "dtype": {"type": "DT_FLOAT"}}}, {"name": "module_apply_default/MobilenetV2/expanded_conv_3/project/BatchNorm/FusedBatchNorm/Offset", "op": "Const", "attr": {"value": {"tensor": {"dtype": "DT_FLOAT", "tensorShape": {"dim": [{"size": "32"}]}}}, "dtype": {"type": "DT_FLOAT"}}}, {"name": "module_apply_default/MobilenetV2/expanded_conv_3/project/Conv2D/merged_input", "op": "Const", "attr": {"value": {"tensor": {"dtype": "DT_FLOAT", "tensorShape": {"dim": [{"size": "1"}, {"size": "1"}, {"size": "144"}, {"size": "32"}]}}}, "dtype": {"type": "DT_FLOAT"}}}, {"name": "module_apply_default/MobilenetV2/expanded_conv_3/depthwise/BatchNorm/FusedBatchNorm/Offset", "op": "Const", "attr": {"value": {"tensor": {"dtype": "DT_FLOAT", "tensorShape": {"dim": [{"size": "144"}]}}}, "dtype": {"type": "DT_FLOAT"}}}, {"name": "module/MobilenetV2/expanded_conv_3/depthwise/depthwise_weights", "op": "Const", "attr": {"value": {"tensor": {"dtype": "DT_FLOAT", "tensorShape": {"dim": [{"size": "3"}, {"size": "3"}, {"size": "144"}, {"size": "1"}]}}}, "dtype": {"type": "DT_FLOAT"}}}, {"name": "module_apply_default/MobilenetV2/expanded_conv_3/expand/BatchNorm/FusedBatchNorm/Offset", "op": "Const", "attr": {"value": {"tensor": {"dtype": "DT_FLOAT", "tensorShape": {"dim": [{"size": "144"}]}}}, "dtype": {"type": "DT_FLOAT"}}}, {"name": "module_apply_default/MobilenetV2/expanded_conv_3/expand/Conv2D/merged_input", "op": "Const", "attr": {"value": {"tensor": {"dtype": "DT_FLOAT", "tensorShape": {"dim": [{"size": "1"}, {"size": "1"}, {"size": "24"}, {"size": "144"}]}}}, "dtype": {"type": "DT_FLOAT"}}}, {"name": "module_apply_default/MobilenetV2/expanded_conv_2/project/BatchNorm/FusedBatchNorm/Offset", "op": "Const", "attr": {"value": {"tensor": {"dtype": "DT_FLOAT", "tensorShape": {"dim": [{"size": "24"}]}}}, "dtype": {"type": "DT_FLOAT"}}}, {"name": "module_apply_default/MobilenetV2/expanded_conv_2/project/Conv2D/merged_input", "op": "Const", "attr": {"value": {"tensor": {"dtype": "DT_FLOAT", "tensorShape": {"dim": [{"size": "1"}, {"size": "1"}, {"size": "144"}, {"size": "24"}]}}}, "dtype": {"type": "DT_FLOAT"}}}, {"name": "module_apply_default/MobilenetV2/expanded_conv_2/depthwise/BatchNorm/FusedBatchNorm/Offset", "op": "Const", "attr": {"value": {"tensor": {"dtype": "DT_FLOAT", "tensorShape": {"dim": [{"size": "144"}]}}}, "dtype": {"type": "DT_FLOAT"}}}, {"name": "module/MobilenetV2/expanded_conv_2/depthwise/depthwise_weights", "op": "Const", "attr": {"value": {"tensor": {"dtype": "DT_FLOAT", "tensorShape": {"dim": [{"size": "3"}, {"size": "3"}, {"size": "144"}, {"size": "1"}]}}}, "dtype": {"type": "DT_FLOAT"}}}, {"name": "module_apply_default/MobilenetV2/expanded_conv_2/expand/BatchNorm/FusedBatchNorm/Offset", "op": "Const", "attr": {"value": {"tensor": {"dtype": "DT_FLOAT", "tensorShape": {"dim": [{"size": "144"}]}}}, "dtype": {"type": "DT_FLOAT"}}}, {"name": "module_apply_default/MobilenetV2/expanded_conv_2/expand/Conv2D/merged_input", "op": "Const", "attr": {"value": {"tensor": {"dtype": "DT_FLOAT", "tensorShape": {"dim": [{"size": "1"}, {"size": "1"}, {"size": "24"}, {"size": "144"}]}}}, "dtype": {"type": "DT_FLOAT"}}}, {"name": "module_apply_default/MobilenetV2/expanded_conv_1/project/BatchNorm/FusedBatchNorm/Offset", "op": "Const", "attr": {"value": {"tensor": {"dtype": "DT_FLOAT", "tensorShape": {"dim": [{"size": "24"}]}}}, "dtype": {"type": "DT_FLOAT"}}}, {"name": "module_apply_default/MobilenetV2/expanded_conv_1/project/Conv2D/merged_input", "op": "Const", "attr": {"value": {"tensor": {"dtype": "DT_FLOAT", "tensorShape": {"dim": [{"size": "1"}, {"size": "1"}, {"size": "96"}, {"size": "24"}]}}}, "dtype": {"type": "DT_FLOAT"}}}, {"name": "module_apply_default/MobilenetV2/expanded_conv_1/depthwise/BatchNorm/FusedBatchNorm/Offset", "op": "Const", "attr": {"value": {"tensor": {"dtype": "DT_FLOAT", "tensorShape": {"dim": [{"size": "96"}]}}}, "dtype": {"type": "DT_FLOAT"}}}, {"name": "module/MobilenetV2/expanded_conv_1/depthwise/depthwise_weights", "op": "Const", "attr": {"value": {"tensor": {"dtype": "DT_FLOAT", "tensorShape": {"dim": [{"size": "3"}, {"size": "3"}, {"size": "96"}, {"size": "1"}]}}}, "dtype": {"type": "DT_FLOAT"}}}, {"name": "module_apply_default/MobilenetV2/expanded_conv_1/expand/BatchNorm/FusedBatchNorm/Offset", "op": "Const", "attr": {"value": {"tensor": {"dtype": "DT_FLOAT", "tensorShape": {"dim": [{"size": "96"}]}}}, "dtype": {"type": "DT_FLOAT"}}}, {"name": "module_apply_default/MobilenetV2/expanded_conv_1/expand/Conv2D/merged_input", "op": "Const", "attr": {"value": {"tensor": {"dtype": "DT_FLOAT", "tensorShape": {"dim": [{"size": "1"}, {"size": "1"}, {"size": "16"}, {"size": "96"}]}}}, "dtype": {"type": "DT_FLOAT"}}}, {"name": "module_apply_default/MobilenetV2/expanded_conv/project/BatchNorm/FusedBatchNorm/Offset", "op": "Const", "attr": {"value": {"tensor": {"dtype": "DT_FLOAT", "tensorShape": {"dim": [{"size": "16"}]}}}, "dtype": {"type": "DT_FLOAT"}}}, {"name": "module_apply_default/MobilenetV2/expanded_conv/project/Conv2D/merged_input", "op": "Const", "attr": {"value": {"tensor": {"dtype": "DT_FLOAT", "tensorShape": {"dim": [{"size": "1"}, {"size": "1"}, {"size": "32"}, {"size": "16"}]}}}, "dtype": {"type": "DT_FLOAT"}}}, {"name": "module_apply_default/MobilenetV2/expanded_conv/depthwise/BatchNorm/FusedBatchNorm/Offset", "op": "Const", "attr": {"value": {"tensor": {"dtype": "DT_FLOAT", "tensorShape": {"dim": [{"size": "32"}]}}}, "dtype": {"type": "DT_FLOAT"}}}, {"name": "module/MobilenetV2/expanded_conv/depthwise/depthwise_weights", "op": "Const", "attr": {"value": {"tensor": {"dtype": "DT_FLOAT", "tensorShape": {"dim": [{"size": "3"}, {"size": "3"}, {"size": "32"}, {"size": "1"}]}}}, "dtype": {"type": "DT_FLOAT"}}}, {"name": "module_apply_default/MobilenetV2/Conv/BatchNorm/FusedBatchNorm/Offset", "op": "Const", "attr": {"value": {"tensor": {"dtype": "DT_FLOAT", "tensorShape": {"dim": [{"size": "32"}]}}}, "dtype": {"type": "DT_FLOAT"}}}, {"name": "module_apply_default/MobilenetV2/Conv/Conv2D/merged_input", "op": "Const", "attr": {"value": {"tensor": {"dtype": "DT_FLOAT", "tensorShape": {"dim": [{"size": "3"}, {"size": "3"}, {"size": "3"}, {"size": "32"}]}}}, "dtype": {"type": "DT_FLOAT"}}}, {"name": "module_apply_default/hub_input/Sub/y", "op": "Const", "attr": {"value": {"tensor": {"dtype": "DT_FLOAT", "tensorShape": {}}}, "dtype": {"type": "DT_FLOAT"}}}, {"name": "module_apply_default/hub_input/Mul/y", "op": "Const", "attr": {"value": {"tensor": {"dtype": "DT_FLOAT", "tensorShape": {}}}, "dtype": {"type": "DT_FLOAT"}}}, {"name": "Placeholder", "op": "Placeholder", "attr": {"shape": {"shape": {"dim": [{"size": "-1"}, {"size": "224"}, {"size": "224"}, {"size": "3"}]}}, "dtype": {"type": "DT_FLOAT"}}}, {"name": "module_apply_default/MobilenetV2/expanded_conv/depthwise/BatchNorm/FusedBatchNorm/Scaled", "op": "Const", "attr": {"value": {"tensor": {"dtype": "DT_FLOAT", "tensorShape": {"dim": [{"size": "32"}]}}}, "dtype": {"type": "DT_FLOAT"}}}, {"name": "module_apply_default/MobilenetV2/expanded_conv_1/depthwise/BatchNorm/FusedBatchNorm/Scaled", "op": "Const", "attr": {"value": {"tensor": {"dtype": "DT_FLOAT", "tensorShape": {"dim": [{"size": "96"}]}}}, "dtype": {"type": "DT_FLOAT"}}}, {"name": "module_apply_default/MobilenetV2/expanded_conv_2/depthwise/BatchNorm/FusedBatchNorm/Scaled", "op": "Const", "attr": {"value": {"tensor": {"dtype": "DT_FLOAT", "tensorShape": {"dim": [{"size": "144"}]}}}, "dtype": {"type": "DT_FLOAT"}}}, {"name": "module_apply_default/MobilenetV2/expanded_conv_3/depthwise/BatchNorm/FusedBatchNorm/Scaled", "op": "Const", "attr": {"value": {"tensor": {"dtype": "DT_FLOAT", "tensorShape": {"dim": [{"size": "144"}]}}}, "dtype": {"type": "DT_FLOAT"}}}, {"name": "module_apply_default/MobilenetV2/expanded_conv_4/depthwise/BatchNorm/FusedBatchNorm/Scaled", "op": "Const", "attr": {"value": {"tensor": {"dtype": "DT_FLOAT", "tensorShape": {"dim": [{"size": "192"}]}}}, "dtype": {"type": "DT_FLOAT"}}}, {"name": "module_apply_default/MobilenetV2/expanded_conv_5/depthwise/BatchNorm/FusedBatchNorm/Scaled", "op": "Const", "attr": {"value": {"tensor": {"dtype": "DT_FLOAT", "tensorShape": {"dim": [{"size": "192"}]}}}, "dtype": {"type": "DT_FLOAT"}}}, {"name": "module_apply_default/MobilenetV2/expanded_conv_6/depthwise/BatchNorm/FusedBatchNorm/Scaled", "op": "Const", "attr": {"value": {"tensor": {"dtype": "DT_FLOAT", "tensorShape": {"dim": [{"size": "192"}]}}}, "dtype": {"type": "DT_FLOAT"}}}, {"name": "module_apply_default/MobilenetV2/expanded_conv_7/depthwise/BatchNorm/FusedBatchNorm/Scaled", "op": "Const", "attr": {"value": {"tensor": {"dtype": "DT_FLOAT", "tensorShape": {"dim": [{"size": "384"}]}}}, "dtype": {"type": "DT_FLOAT"}}}, {"name": "module_apply_default/MobilenetV2/expanded_conv_8/depthwise/BatchNorm/FusedBatchNorm/Scaled", "op": "Const", "attr": {"value": {"tensor": {"dtype": "DT_FLOAT", "tensorShape": {"dim": [{"size": "384"}]}}}, "dtype": {"type": "DT_FLOAT"}}}, {"name": "module_apply_default/MobilenetV2/expanded_conv_9/depthwise/BatchNorm/FusedBatchNorm/Scaled", "op": "Const", "attr": {"value": {"tensor": {"dtype": "DT_FLOAT", "tensorShape": {"dim": [{"size": "384"}]}}}, "dtype": {"type": "DT_FLOAT"}}}, {"name": "module_apply_default/MobilenetV2/expanded_conv_10/depthwise/BatchNorm/FusedBatchNorm/Scaled", "op": "Const", "attr": {"value": {"tensor": {"dtype": "DT_FLOAT", "tensorShape": {"dim": [{"size": "384"}]}}}, "dtype": {"type": "DT_FLOAT"}}}, {"name": "module_apply_default/MobilenetV2/expanded_conv_11/depthwise/BatchNorm/FusedBatchNorm/Scaled", "op": "Const", "attr": {"value": {"tensor": {"dtype": "DT_FLOAT", "tensorShape": {"dim": [{"size": "576"}]}}}, "dtype": {"type": "DT_FLOAT"}}}, {"name": "module_apply_default/MobilenetV2/expanded_conv_12/depthwise/BatchNorm/FusedBatchNorm/Scaled", "op": "Const", "attr": {"value": {"tensor": {"dtype": "DT_FLOAT", "tensorShape": {"dim": [{"size": "576"}]}}}, "dtype": {"type": "DT_FLOAT"}}}, {"name": "module_apply_default/MobilenetV2/expanded_conv_13/depthwise/BatchNorm/FusedBatchNorm/Scaled", "op": "Const", "attr": {"value": {"tensor": {"dtype": "DT_FLOAT", "tensorShape": {"dim": [{"size": "576"}]}}}, "dtype": {"type": "DT_FLOAT"}}}, {"name": "module_apply_default/MobilenetV2/expanded_conv_14/depthwise/BatchNorm/FusedBatchNorm/Scaled", "op": "Const", "attr": {"value": {"tensor": {"dtype": "DT_FLOAT", "tensorShape": {"dim": [{"size": "960"}]}}}, "dtype": {"type": "DT_FLOAT"}}}, {"name": "module_apply_default/MobilenetV2/expanded_conv_15/depthwise/BatchNorm/FusedBatchNorm/Scaled", "op": "Const", "attr": {"value": {"tensor": {"dtype": "DT_FLOAT", "tensorShape": {"dim": [{"size": "960"}]}}}, "dtype": {"type": "DT_FLOAT"}}}, {"name": "module_apply_default/MobilenetV2/expanded_conv_16/depthwise/BatchNorm/FusedBatchNorm/Scaled", "op": "Const", "attr": {"value": {"tensor": {"dtype": "DT_FLOAT", "tensorShape": {"dim": [{"size": "960"}]}}}, "dtype": {"type": "DT_FLOAT"}}}, {"name": "module_apply_default/hub_input/Mul", "op": "Mul", "input": ["Placeholder", "module_apply_default/hub_input/Mul/y"], "attr": {"T": {"type": "DT_FLOAT"}}}, {"name": "module_apply_default/hub_input/Sub", "op": "Sub", "input": ["module_apply_default/hub_input/Mul", "module_apply_default/hub_input/Sub/y"], "attr": {"T": {"type": "DT_FLOAT"}}}, {"name": "module_apply_default/MobilenetV2/Conv/BatchNorm/FusedBatchNorm/Mul", "op": "Conv2D", "input": ["module_apply_default/hub_input/Sub", "module_apply_default/MobilenetV2/Conv/Conv2D/merged_input"], "attr": {"explicit_paddings": {"list": {}}, "use_cudnn_on_gpu": {"b": true}, "padding": {"s": "U0FNRQ=="}, "dilations": {"list": {"i": ["1", "1", "1", "1"]}}, "T": {"type": "DT_FLOAT"}, "data_format": {"s": "TkhXQw=="}, "strides": {"list": {"i": ["1", "2", "2", "1"]}}}}, {"name": "module_apply_default/MobilenetV2/Conv/BatchNorm/FusedBatchNorm", "op": "Add", "input": ["module_apply_default/MobilenetV2/Conv/BatchNorm/FusedBatchNorm/Mul", "module_apply_default/MobilenetV2/Conv/BatchNorm/FusedBatchNorm/Offset"], "attr": {"T": {"type": "DT_FLOAT"}}}, {"name": "module_apply_default/MobilenetV2/Conv/Relu6", "op": "Relu6", "input": ["module_apply_default/MobilenetV2/Conv/BatchNorm/FusedBatchNorm"], "attr": {"T": {"type": "DT_FLOAT"}}}, {"name": "module_apply_default/MobilenetV2/expanded_conv/depthwise/depthwise", "op": "DepthwiseConv2dNative", "input": ["module_apply_default/MobilenetV2/Conv/Relu6", "module/MobilenetV2/expanded_conv/depthwise/depthwise_weights"], "attr": {"padding": {"s": "U0FNRQ=="}, "dilations": {"list": {"i": ["1", "1", "1", "1"]}}, "T": {"type": "DT_FLOAT"}, "data_format": {"s": "TkhXQw=="}, "strides": {"list": {"i": ["1", "1", "1", "1"]}}}}, {"name": "module_apply_default/MobilenetV2/expanded_conv/depthwise/BatchNorm/FusedBatchNorm/Mul", "op": "Mul", "input": ["module_apply_default/MobilenetV2/expanded_conv/depthwise/BatchNorm/FusedBatchNorm/Scaled", "module_apply_default/MobilenetV2/expanded_conv/depthwise/depthwise"], "attr": {"T": {"type": "DT_FLOAT"}}}, {"name": "module_apply_default/MobilenetV2/expanded_conv/depthwise/BatchNorm/FusedBatchNorm", "op": "Add", "input": ["module_apply_default/MobilenetV2/expanded_conv/depthwise/BatchNorm/FusedBatchNorm/Mul", "module_apply_default/MobilenetV2/expanded_conv/depthwise/BatchNorm/FusedBatchNorm/Offset"], "attr": {"T": {"type": "DT_FLOAT"}}}, {"name": "module_apply_default/MobilenetV2/expanded_conv/depthwise/Relu6", "op": "Relu6", "input": ["module_apply_default/MobilenetV2/expanded_conv/depthwise/BatchNorm/FusedBatchNorm"], "attr": {"T": {"type": "DT_FLOAT"}}}, {"name": "module_apply_default/MobilenetV2/expanded_conv/project/BatchNorm/FusedBatchNorm/Mul", "op": "Conv2D", "input": ["module_apply_default/MobilenetV2/expanded_conv/depthwise/Relu6", "module_apply_default/MobilenetV2/expanded_conv/project/Conv2D/merged_input"], "attr": {"use_cudnn_on_gpu": {"b": true}, "explicit_paddings": {"list": {}}, "padding": {"s": "U0FNRQ=="}, "dilations": {"list": {"i": ["1", "1", "1", "1"]}}, "T": {"type": "DT_FLOAT"}, "strides": {"list": {"i": ["1", "1", "1", "1"]}}, "data_format": {"s": "TkhXQw=="}}}, {"name": "module_apply_default/MobilenetV2/expanded_conv/project/BatchNorm/FusedBatchNorm", "op": "Add", "input": ["module_apply_default/MobilenetV2/expanded_conv/project/BatchNorm/FusedBatchNorm/Mul", "module_apply_default/MobilenetV2/expanded_conv/project/BatchNorm/FusedBatchNorm/Offset"], "attr": {"T": {"type": "DT_FLOAT"}}}, {"name": "module_apply_default/MobilenetV2/expanded_conv_1/expand/BatchNorm/FusedBatchNorm/Mul", "op": "Conv2D", "input": ["module_apply_default/MobilenetV2/expanded_conv/project/BatchNorm/FusedBatchNorm", "module_apply_default/MobilenetV2/expanded_conv_1/expand/Conv2D/merged_input"], "attr": {"dilations": {"list": {"i": ["1", "1", "1", "1"]}}, "T": {"type": "DT_FLOAT"}, "strides": {"list": {"i": ["1", "1", "1", "1"]}}, "data_format": {"s": "TkhXQw=="}, "explicit_paddings": {"list": {}}, "use_cudnn_on_gpu": {"b": true}, "padding": {"s": "U0FNRQ=="}}}, {"name": "module_apply_default/MobilenetV2/expanded_conv_1/expand/BatchNorm/FusedBatchNorm", "op": "Add", "input": ["module_apply_default/MobilenetV2/expanded_conv_1/expand/BatchNorm/FusedBatchNorm/Mul", "module_apply_default/MobilenetV2/expanded_conv_1/expand/BatchNorm/FusedBatchNorm/Offset"], "attr": {"T": {"type": "DT_FLOAT"}}}, {"name": "module_apply_default/MobilenetV2/expanded_conv_1/expand/Relu6", "op": "Relu6", "input": ["module_apply_default/MobilenetV2/expanded_conv_1/expand/BatchNorm/FusedBatchNorm"], "attr": {"T": {"type": "DT_FLOAT"}}}, {"name": "module_apply_default/MobilenetV2/expanded_conv_1/depthwise/depthwise", "op": "DepthwiseConv2dNative", "input": ["module_apply_default/MobilenetV2/expanded_conv_1/expand/Relu6", "module/MobilenetV2/expanded_conv_1/depthwise/depthwise_weights"], "attr": {"strides": {"list": {"i": ["1", "2", "2", "1"]}}, "data_format": {"s": "TkhXQw=="}, "padding": {"s": "U0FNRQ=="}, "dilations": {"list": {"i": ["1", "1", "1", "1"]}}, "T": {"type": "DT_FLOAT"}}}, {"name": "module_apply_default/MobilenetV2/expanded_conv_1/depthwise/BatchNorm/FusedBatchNorm/Mul", "op": "Mul", "input": ["module_apply_default/MobilenetV2/expanded_conv_1/depthwise/BatchNorm/FusedBatchNorm/Scaled", "module_apply_default/MobilenetV2/expanded_conv_1/depthwise/depthwise"], "attr": {"T": {"type": "DT_FLOAT"}}}, {"name": "module_apply_default/MobilenetV2/expanded_conv_1/depthwise/BatchNorm/FusedBatchNorm", "op": "Add", "input": ["module_apply_default/MobilenetV2/expanded_conv_1/depthwise/BatchNorm/FusedBatchNorm/Mul", "module_apply_default/MobilenetV2/expanded_conv_1/depthwise/BatchNorm/FusedBatchNorm/Offset"], "attr": {"T": {"type": "DT_FLOAT"}}}, {"name": "module_apply_default/MobilenetV2/expanded_conv_1/depthwise/Relu6", "op": "Relu6", "input": ["module_apply_default/MobilenetV2/expanded_conv_1/depthwise/BatchNorm/FusedBatchNorm"], "attr": {"T": {"type": "DT_FLOAT"}}}, {"name": "module_apply_default/MobilenetV2/expanded_conv_1/project/BatchNorm/FusedBatchNorm/Mul", "op": "Conv2D", "input": ["module_apply_default/MobilenetV2/expanded_conv_1/depthwise/Relu6", "module_apply_default/MobilenetV2/expanded_conv_1/project/Conv2D/merged_input"], "attr": {"use_cudnn_on_gpu": {"b": true}, "explicit_paddings": {"list": {}}, "padding": {"s": "U0FNRQ=="}, "dilations": {"list": {"i": ["1", "1", "1", "1"]}}, "T": {"type": "DT_FLOAT"}, "strides": {"list": {"i": ["1", "1", "1", "1"]}}, "data_format": {"s": "TkhXQw=="}}}, {"name": "module_apply_default/MobilenetV2/expanded_conv_1/project/BatchNorm/FusedBatchNorm", "op": "Add", "input": ["module_apply_default/MobilenetV2/expanded_conv_1/project/BatchNorm/FusedBatchNorm/Mul", "module_apply_default/MobilenetV2/expanded_conv_1/project/BatchNorm/FusedBatchNorm/Offset"], "attr": {"T": {"type": "DT_FLOAT"}}}, {"name": "module_apply_default/MobilenetV2/expanded_conv_2/expand/BatchNorm/FusedBatchNorm/Mul", "op": "Conv2D", "input": ["module_apply_default/MobilenetV2/expanded_conv_1/project/BatchNorm/FusedBatchNorm", "module_apply_default/MobilenetV2/expanded_conv_2/expand/Conv2D/merged_input"], "attr": {"data_format": {"s": "TkhXQw=="}, "strides": {"list": {"i": ["1", "1", "1", "1"]}}, "use_cudnn_on_gpu": {"b": true}, "explicit_paddings": {"list": {}}, "padding": {"s": "U0FNRQ=="}, "dilations": {"list": {"i": ["1", "1", "1", "1"]}}, "T": {"type": "DT_FLOAT"}}}, {"name": "module_apply_default/MobilenetV2/expanded_conv_2/expand/BatchNorm/FusedBatchNorm", "op": "Add", "input": ["module_apply_default/MobilenetV2/expanded_conv_2/expand/BatchNorm/FusedBatchNorm/Mul", "module_apply_default/MobilenetV2/expanded_conv_2/expand/BatchNorm/FusedBatchNorm/Offset"], "attr": {"T": {"type": "DT_FLOAT"}}}, {"name": "module_apply_default/MobilenetV2/expanded_conv_2/expand/Relu6", "op": "Relu6", "input": ["module_apply_default/MobilenetV2/expanded_conv_2/expand/BatchNorm/FusedBatchNorm"], "attr": {"T": {"type": "DT_FLOAT"}}}, {"name": "module_apply_default/MobilenetV2/expanded_conv_2/depthwise/depthwise", "op": "DepthwiseConv2dNative", "input": ["module_apply_default/MobilenetV2/expanded_conv_2/expand/Relu6", "module/MobilenetV2/expanded_conv_2/depthwise/depthwise_weights"], "attr": {"padding": {"s": "U0FNRQ=="}, "dilations": {"list": {"i": ["1", "1", "1", "1"]}}, "T": {"type": "DT_FLOAT"}, "data_format": {"s": "TkhXQw=="}, "strides": {"list": {"i": ["1", "1", "1", "1"]}}}}, {"name": "module_apply_default/MobilenetV2/expanded_conv_2/depthwise/BatchNorm/FusedBatchNorm/Mul", "op": "Mul", "input": ["module_apply_default/MobilenetV2/expanded_conv_2/depthwise/BatchNorm/FusedBatchNorm/Scaled", "module_apply_default/MobilenetV2/expanded_conv_2/depthwise/depthwise"], "attr": {"T": {"type": "DT_FLOAT"}}}, {"name": "module_apply_default/MobilenetV2/expanded_conv_2/depthwise/BatchNorm/FusedBatchNorm", "op": "Add", "input": ["module_apply_default/MobilenetV2/expanded_conv_2/depthwise/BatchNorm/FusedBatchNorm/Mul", "module_apply_default/MobilenetV2/expanded_conv_2/depthwise/BatchNorm/FusedBatchNorm/Offset"], "attr": {"T": {"type": "DT_FLOAT"}}}, {"name": "module_apply_default/MobilenetV2/expanded_conv_2/depthwise/Relu6", "op": "Relu6", "input": ["module_apply_default/MobilenetV2/expanded_conv_2/depthwise/BatchNorm/FusedBatchNorm"], "attr": {"T": {"type": "DT_FLOAT"}}}, {"name": "module_apply_default/MobilenetV2/expanded_conv_2/project/BatchNorm/FusedBatchNorm/Mul", "op": "Conv2D", "input": ["module_apply_default/MobilenetV2/expanded_conv_2/depthwise/Relu6", "module_apply_default/MobilenetV2/expanded_conv_2/project/Conv2D/merged_input"], "attr": {"dilations": {"list": {"i": ["1", "1", "1", "1"]}}, "T": {"type": "DT_FLOAT"}, "data_format": {"s": "TkhXQw=="}, "strides": {"list": {"i": ["1", "1", "1", "1"]}}, "use_cudnn_on_gpu": {"b": true}, "explicit_paddings": {"list": {}}, "padding": {"s": "U0FNRQ=="}}}, {"name": "module_apply_default/MobilenetV2/expanded_conv_2/ArithmeticOptimizer/AddOpsRewrite_Leaf_1_add", "op": "AddN", "input": ["module_apply_default/MobilenetV2/expanded_conv_1/project/BatchNorm/FusedBatchNorm", "module_apply_default/MobilenetV2/expanded_conv_2/project/BatchNorm/FusedBatchNorm/Mul"], "attr": {"T": {"type": "DT_FLOAT"}, "_grappler:ArithmeticOptimizer:AddOpsRewriteStage": {"b": true}, "N": {"i": "2"}}}, {"name": "module_apply_default/MobilenetV2/expanded_conv_2/ArithmeticOptimizer/AddOpsRewrite_add", "op": "Add", "input": ["module_apply_default/MobilenetV2/expanded_conv_2/ArithmeticOptimizer/AddOpsRewrite_Leaf_1_add", "module_apply_default/MobilenetV2/expanded_conv_2/project/BatchNorm/FusedBatchNorm/Offset"], "attr": {"_grappler:ArithmeticOptimizer:AddOpsRewriteStage": {"b": true}, "T": {"type": "DT_FLOAT"}}}, {"name": "module_apply_default/MobilenetV2/expanded_conv_3/expand/BatchNorm/FusedBatchNorm/Mul", "op": "Conv2D", "input": ["module_apply_default/MobilenetV2/expanded_conv_2/ArithmeticOptimizer/AddOpsRewrite_add", "module_apply_default/MobilenetV2/expanded_conv_3/expand/Conv2D/merged_input"], "attr": {"dilations": {"list": {"i": ["1", "1", "1", "1"]}}, "T": {"type": "DT_FLOAT"}, "data_format": {"s": "TkhXQw=="}, "strides": {"list": {"i": ["1", "1", "1", "1"]}}, "explicit_paddings": {"list": {}}, "use_cudnn_on_gpu": {"b": true}, "padding": {"s": "U0FNRQ=="}}}, {"name": "module_apply_default/MobilenetV2/expanded_conv_3/expand/BatchNorm/FusedBatchNorm", "op": "Add", "input": ["module_apply_default/MobilenetV2/expanded_conv_3/expand/BatchNorm/FusedBatchNorm/Mul", "module_apply_default/MobilenetV2/expanded_conv_3/expand/BatchNorm/FusedBatchNorm/Offset"], "attr": {"T": {"type": "DT_FLOAT"}}}, {"name": "module_apply_default/MobilenetV2/expanded_conv_3/expand/Relu6", "op": "Relu6", "input": ["module_apply_default/MobilenetV2/expanded_conv_3/expand/BatchNorm/FusedBatchNorm"], "attr": {"T": {"type": "DT_FLOAT"}}}, {"name": "module_apply_default/MobilenetV2/expanded_conv_3/depthwise/depthwise", "op": "DepthwiseConv2dNative", "input": ["module_apply_default/MobilenetV2/expanded_conv_3/expand/Relu6", "module/MobilenetV2/expanded_conv_3/depthwise/depthwise_weights"], "attr": {"dilations": {"list": {"i": ["1", "1", "1", "1"]}}, "padding": {"s": "U0FNRQ=="}, "T": {"type": "DT_FLOAT"}, "strides": {"list": {"i": ["1", "2", "2", "1"]}}, "data_format": {"s": "TkhXQw=="}}}, {"name": "module_apply_default/MobilenetV2/expanded_conv_3/depthwise/BatchNorm/FusedBatchNorm/Mul", "op": "Mul", "input": ["module_apply_default/MobilenetV2/expanded_conv_3/depthwise/BatchNorm/FusedBatchNorm/Scaled", "module_apply_default/MobilenetV2/expanded_conv_3/depthwise/depthwise"], "attr": {"T": {"type": "DT_FLOAT"}}}, {"name": "module_apply_default/MobilenetV2/expanded_conv_3/depthwise/BatchNorm/FusedBatchNorm", "op": "Add", "input": ["module_apply_default/MobilenetV2/expanded_conv_3/depthwise/BatchNorm/FusedBatchNorm/Mul", "module_apply_default/MobilenetV2/expanded_conv_3/depthwise/BatchNorm/FusedBatchNorm/Offset"], "attr": {"T": {"type": "DT_FLOAT"}}}, {"name": "module_apply_default/MobilenetV2/expanded_conv_3/depthwise/Relu6", "op": "Relu6", "input": ["module_apply_default/MobilenetV2/expanded_conv_3/depthwise/BatchNorm/FusedBatchNorm"], "attr": {"T": {"type": "DT_FLOAT"}}}, {"name": "module_apply_default/MobilenetV2/expanded_conv_3/project/BatchNorm/FusedBatchNorm/Mul", "op": "Conv2D", "input": ["module_apply_default/MobilenetV2/expanded_conv_3/depthwise/Relu6", "module_apply_default/MobilenetV2/expanded_conv_3/project/Conv2D/merged_input"], "attr": {"data_format": {"s": "TkhXQw=="}, "strides": {"list": {"i": ["1", "1", "1", "1"]}}, "use_cudnn_on_gpu": {"b": true}, "explicit_paddings": {"list": {}}, "padding": {"s": "U0FNRQ=="}, "dilations": {"list": {"i": ["1", "1", "1", "1"]}}, "T": {"type": "DT_FLOAT"}}}, {"name": "module_apply_default/MobilenetV2/expanded_conv_3/project/BatchNorm/FusedBatchNorm", "op": "Add", "input": ["module_apply_default/MobilenetV2/expanded_conv_3/project/BatchNorm/FusedBatchNorm/Mul", "module_apply_default/MobilenetV2/expanded_conv_3/project/BatchNorm/FusedBatchNorm/Offset"], "attr": {"T": {"type": "DT_FLOAT"}}}, {"name": "module_apply_default/MobilenetV2/expanded_conv_4/expand/BatchNorm/FusedBatchNorm/Mul", "op": "Conv2D", "input": ["module_apply_default/MobilenetV2/expanded_conv_3/project/BatchNorm/FusedBatchNorm", "module_apply_default/MobilenetV2/expanded_conv_4/expand/Conv2D/merged_input"], "attr": {"dilations": {"list": {"i": ["1", "1", "1", "1"]}}, "T": {"type": "DT_FLOAT"}, "strides": {"list": {"i": ["1", "1", "1", "1"]}}, "data_format": {"s": "TkhXQw=="}, "use_cudnn_on_gpu": {"b": true}, "explicit_paddings": {"list": {}}, "padding": {"s": "U0FNRQ=="}}}, {"name": "module_apply_default/MobilenetV2/expanded_conv_4/expand/BatchNorm/FusedBatchNorm", "op": "Add", "input": ["module_apply_default/MobilenetV2/expanded_conv_4/expand/BatchNorm/FusedBatchNorm/Mul", "module_apply_default/MobilenetV2/expanded_conv_4/expand/BatchNorm/FusedBatchNorm/Offset"], "attr": {"T": {"type": "DT_FLOAT"}}}, {"name": "module_apply_default/MobilenetV2/expanded_conv_4/expand/Relu6", "op": "Relu6", "input": ["module_apply_default/MobilenetV2/expanded_conv_4/expand/BatchNorm/FusedBatchNorm"], "attr": {"T": {"type": "DT_FLOAT"}}}, {"name": "module_apply_default/MobilenetV2/expanded_conv_4/depthwise/depthwise", "op": "DepthwiseConv2dNative", "input": ["module_apply_default/MobilenetV2/expanded_conv_4/expand/Relu6", "module/MobilenetV2/expanded_conv_4/depthwise/depthwise_weights"], "attr": {"data_format": {"s": "TkhXQw=="}, "strides": {"list": {"i": ["1", "1", "1", "1"]}}, "dilations": {"list": {"i": ["1", "1", "1", "1"]}}, "padding": {"s": "U0FNRQ=="}, "T": {"type": "DT_FLOAT"}}}, {"name": "module_apply_default/MobilenetV2/expanded_conv_4/depthwise/BatchNorm/FusedBatchNorm/Mul", "op": "Mul", "input": ["module_apply_default/MobilenetV2/expanded_conv_4/depthwise/BatchNorm/FusedBatchNorm/Scaled", "module_apply_default/MobilenetV2/expanded_conv_4/depthwise/depthwise"], "attr": {"T": {"type": "DT_FLOAT"}}}, {"name": "module_apply_default/MobilenetV2/expanded_conv_4/depthwise/BatchNorm/FusedBatchNorm", "op": "Add", "input": ["module_apply_default/MobilenetV2/expanded_conv_4/depthwise/BatchNorm/FusedBatchNorm/Mul", "module_apply_default/MobilenetV2/expanded_conv_4/depthwise/BatchNorm/FusedBatchNorm/Offset"], "attr": {"T": {"type": "DT_FLOAT"}}}, {"name": "module_apply_default/MobilenetV2/expanded_conv_4/depthwise/Relu6", "op": "Relu6", "input": ["module_apply_default/MobilenetV2/expanded_conv_4/depthwise/BatchNorm/FusedBatchNorm"], "attr": {"T": {"type": "DT_FLOAT"}}}, {"name": "module_apply_default/MobilenetV2/expanded_conv_4/project/BatchNorm/FusedBatchNorm/Mul", "op": "Conv2D", "input": ["module_apply_default/MobilenetV2/expanded_conv_4/depthwise/Relu6", "module_apply_default/MobilenetV2/expanded_conv_4/project/Conv2D/merged_input"], "attr": {"dilations": {"list": {"i": ["1", "1", "1", "1"]}}, "T": {"type": "DT_FLOAT"}, "data_format": {"s": "TkhXQw=="}, "strides": {"list": {"i": ["1", "1", "1", "1"]}}, "explicit_paddings": {"list": {}}, "use_cudnn_on_gpu": {"b": true}, "padding": {"s": "U0FNRQ=="}}}, {"name": "module_apply_default/MobilenetV2/expanded_conv_4/ArithmeticOptimizer/AddOpsRewrite_Leaf_1_add", "op": "AddN", "input": ["module_apply_default/MobilenetV2/expanded_conv_3/project/BatchNorm/FusedBatchNorm", "module_apply_default/MobilenetV2/expanded_conv_4/project/BatchNorm/FusedBatchNorm/Mul"], "attr": {"_grappler:ArithmeticOptimizer:AddOpsRewriteStage": {"b": true}, "N": {"i": "2"}, "T": {"type": "DT_FLOAT"}}}, {"name": "module_apply_default/MobilenetV2/expanded_conv_4/ArithmeticOptimizer/AddOpsRewrite_add", "op": "Add", "input": ["module_apply_default/MobilenetV2/expanded_conv_4/ArithmeticOptimizer/AddOpsRewrite_Leaf_1_add", "module_apply_default/MobilenetV2/expanded_conv_4/project/BatchNorm/FusedBatchNorm/Offset"], "attr": {"T": {"type": "DT_FLOAT"}, "_grappler:ArithmeticOptimizer:AddOpsRewriteStage": {"b": true}}}, {"name": "module_apply_default/MobilenetV2/expanded_conv_5/expand/BatchNorm/FusedBatchNorm/Mul", "op": "Conv2D", "input": ["module_apply_default/MobilenetV2/expanded_conv_4/ArithmeticOptimizer/AddOpsRewrite_add", "module_apply_default/MobilenetV2/expanded_conv_5/expand/Conv2D/merged_input"], "attr": {"dilations": {"list": {"i": ["1", "1", "1", "1"]}}, "T": {"type": "DT_FLOAT"}, "data_format": {"s": "TkhXQw=="}, "strides": {"list": {"i": ["1", "1", "1", "1"]}}, "explicit_paddings": {"list": {}}, "use_cudnn_on_gpu": {"b": true}, "padding": {"s": "U0FNRQ=="}}}, {"name": "module_apply_default/MobilenetV2/expanded_conv_5/expand/BatchNorm/FusedBatchNorm", "op": "Add", "input": ["module_apply_default/MobilenetV2/expanded_conv_5/expand/BatchNorm/FusedBatchNorm/Mul", "module_apply_default/MobilenetV2/expanded_conv_5/expand/BatchNorm/FusedBatchNorm/Offset"], "attr": {"T": {"type": "DT_FLOAT"}}}, {"name": "module_apply_default/MobilenetV2/expanded_conv_5/expand/Relu6", "op": "Relu6", "input": ["module_apply_default/MobilenetV2/expanded_conv_5/expand/BatchNorm/FusedBatchNorm"], "attr": {"T": {"type": "DT_FLOAT"}}}, {"name": "module_apply_default/MobilenetV2/expanded_conv_5/depthwise/depthwise", "op": "DepthwiseConv2dNative", "input": ["module_apply_default/MobilenetV2/expanded_conv_5/expand/Relu6", "module/MobilenetV2/expanded_conv_5/depthwise/depthwise_weights"], "attr": {"padding": {"s": "U0FNRQ=="}, "dilations": {"list": {"i": ["1", "1", "1", "1"]}}, "T": {"type": "DT_FLOAT"}, "strides": {"list": {"i": ["1", "1", "1", "1"]}}, "data_format": {"s": "TkhXQw=="}}}, {"name": "module_apply_default/MobilenetV2/expanded_conv_5/depthwise/BatchNorm/FusedBatchNorm/Mul", "op": "Mul", "input": ["module_apply_default/MobilenetV2/expanded_conv_5/depthwise/BatchNorm/FusedBatchNorm/Scaled", "module_apply_default/MobilenetV2/expanded_conv_5/depthwise/depthwise"], "attr": {"T": {"type": "DT_FLOAT"}}}, {"name": "module_apply_default/MobilenetV2/expanded_conv_5/depthwise/BatchNorm/FusedBatchNorm", "op": "Add", "input": ["module_apply_default/MobilenetV2/expanded_conv_5/depthwise/BatchNorm/FusedBatchNorm/Mul", "module_apply_default/MobilenetV2/expanded_conv_5/depthwise/BatchNorm/FusedBatchNorm/Offset"], "attr": {"T": {"type": "DT_FLOAT"}}}, {"name": "module_apply_default/MobilenetV2/expanded_conv_5/depthwise/Relu6", "op": "Relu6", "input": ["module_apply_default/MobilenetV2/expanded_conv_5/depthwise/BatchNorm/FusedBatchNorm"], "attr": {"T": {"type": "DT_FLOAT"}}}, {"name": "module_apply_default/MobilenetV2/expanded_conv_5/project/BatchNorm/FusedBatchNorm/Mul", "op": "Conv2D", "input": ["module_apply_default/MobilenetV2/expanded_conv_5/depthwise/Relu6", "module_apply_default/MobilenetV2/expanded_conv_5/project/Conv2D/merged_input"], "attr": {"dilations": {"list": {"i": ["1", "1", "1", "1"]}}, "T": {"type": "DT_FLOAT"}, "data_format": {"s": "TkhXQw=="}, "strides": {"list": {"i": ["1", "1", "1", "1"]}}, "use_cudnn_on_gpu": {"b": true}, "explicit_paddings": {"list": {}}, "padding": {"s": "U0FNRQ=="}}}, {"name": "module_apply_default/MobilenetV2/expanded_conv_5/ArithmeticOptimizer/AddOpsRewrite_Leaf_1_add", "op": "AddN", "input": ["module_apply_default/MobilenetV2/expanded_conv_4/ArithmeticOptimizer/AddOpsRewrite_add", "module_apply_default/MobilenetV2/expanded_conv_5/project/BatchNorm/FusedBatchNorm/Mul"], "attr": {"T": {"type": "DT_FLOAT"}, "_grappler:ArithmeticOptimizer:AddOpsRewriteStage": {"b": true}, "N": {"i": "2"}}}, {"name": "module_apply_default/MobilenetV2/expanded_conv_5/ArithmeticOptimizer/AddOpsRewrite_add", "op": "Add", "input": ["module_apply_default/MobilenetV2/expanded_conv_5/ArithmeticOptimizer/AddOpsRewrite_Leaf_1_add", "module_apply_default/MobilenetV2/expanded_conv_5/project/BatchNorm/FusedBatchNorm/Offset"], "attr": {"T": {"type": "DT_FLOAT"}, "_grappler:ArithmeticOptimizer:AddOpsRewriteStage": {"b": true}}}, {"name": "module_apply_default/MobilenetV2/expanded_conv_6/expand/BatchNorm/FusedBatchNorm/Mul", "op": "Conv2D", "input": ["module_apply_default/MobilenetV2/expanded_conv_5/ArithmeticOptimizer/AddOpsRewrite_add", "module_apply_default/MobilenetV2/expanded_conv_6/expand/Conv2D/merged_input"], "attr": {"padding": {"s": "U0FNRQ=="}, "dilations": {"list": {"i": ["1", "1", "1", "1"]}}, "T": {"type": "DT_FLOAT"}, "strides": {"list": {"i": ["1", "1", "1", "1"]}}, "data_format": {"s": "TkhXQw=="}, "explicit_paddings": {"list": {}}, "use_cudnn_on_gpu": {"b": true}}}, {"name": "module_apply_default/MobilenetV2/expanded_conv_6/expand/BatchNorm/FusedBatchNorm", "op": "Add", "input": ["module_apply_default/MobilenetV2/expanded_conv_6/expand/BatchNorm/FusedBatchNorm/Mul", "module_apply_default/MobilenetV2/expanded_conv_6/expand/BatchNorm/FusedBatchNorm/Offset"], "attr": {"T": {"type": "DT_FLOAT"}}}, {"name": "module_apply_default/MobilenetV2/expanded_conv_6/expand/Relu6", "op": "Relu6", "input": ["module_apply_default/MobilenetV2/expanded_conv_6/expand/BatchNorm/FusedBatchNorm"], "attr": {"T": {"type": "DT_FLOAT"}}}, {"name": "module_apply_default/MobilenetV2/expanded_conv_6/depthwise/depthwise", "op": "DepthwiseConv2dNative", "input": ["module_apply_default/MobilenetV2/expanded_conv_6/expand/Relu6", "module/MobilenetV2/expanded_conv_6/depthwise/depthwise_weights"], "attr": {"padding": {"s": "U0FNRQ=="}, "dilations": {"list": {"i": ["1", "1", "1", "1"]}}, "T": {"type": "DT_FLOAT"}, "data_format": {"s": "TkhXQw=="}, "strides": {"list": {"i": ["1", "2", "2", "1"]}}}}, {"name": "module_apply_default/MobilenetV2/expanded_conv_6/depthwise/BatchNorm/FusedBatchNorm/Mul", "op": "Mul", "input": ["module_apply_default/MobilenetV2/expanded_conv_6/depthwise/BatchNorm/FusedBatchNorm/Scaled", "module_apply_default/MobilenetV2/expanded_conv_6/depthwise/depthwise"], "attr": {"T": {"type": "DT_FLOAT"}}}, {"name": "module_apply_default/MobilenetV2/expanded_conv_6/depthwise/BatchNorm/FusedBatchNorm", "op": "Add", "input": ["module_apply_default/MobilenetV2/expanded_conv_6/depthwise/BatchNorm/FusedBatchNorm/Mul", "module_apply_default/MobilenetV2/expanded_conv_6/depthwise/BatchNorm/FusedBatchNorm/Offset"], "attr": {"T": {"type": "DT_FLOAT"}}}, {"name": "module_apply_default/MobilenetV2/expanded_conv_6/depthwise/Relu6", "op": "Relu6", "input": ["module_apply_default/MobilenetV2/expanded_conv_6/depthwise/BatchNorm/FusedBatchNorm"], "attr": {"T": {"type": "DT_FLOAT"}}}, {"name": "module_apply_default/MobilenetV2/expanded_conv_6/project/BatchNorm/FusedBatchNorm/Mul", "op": "Conv2D", "input": ["module_apply_default/MobilenetV2/expanded_conv_6/depthwise/Relu6", "module_apply_default/MobilenetV2/expanded_conv_6/project/Conv2D/merged_input"], "attr": {"use_cudnn_on_gpu": {"b": true}, "explicit_paddings": {"list": {}}, "padding": {"s": "U0FNRQ=="}, "dilations": {"list": {"i": ["1", "1", "1", "1"]}}, "T": {"type": "DT_FLOAT"}, "data_format": {"s": "TkhXQw=="}, "strides": {"list": {"i": ["1", "1", "1", "1"]}}}}, {"name": "module_apply_default/MobilenetV2/expanded_conv_6/project/BatchNorm/FusedBatchNorm", "op": "Add", "input": ["module_apply_default/MobilenetV2/expanded_conv_6/project/BatchNorm/FusedBatchNorm/Mul", "module_apply_default/MobilenetV2/expanded_conv_6/project/BatchNorm/FusedBatchNorm/Offset"], "attr": {"T": {"type": "DT_FLOAT"}}}, {"name": "module_apply_default/MobilenetV2/expanded_conv_7/expand/BatchNorm/FusedBatchNorm/Mul", "op": "Conv2D", "input": ["module_apply_default/MobilenetV2/expanded_conv_6/project/BatchNorm/FusedBatchNorm", "module_apply_default/MobilenetV2/expanded_conv_7/expand/Conv2D/merged_input"], "attr": {"padding": {"s": "U0FNRQ=="}, "dilations": {"list": {"i": ["1", "1", "1", "1"]}}, "T": {"type": "DT_FLOAT"}, "strides": {"list": {"i": ["1", "1", "1", "1"]}}, "data_format": {"s": "TkhXQw=="}, "explicit_paddings": {"list": {}}, "use_cudnn_on_gpu": {"b": true}}}, {"name": "module_apply_default/MobilenetV2/expanded_conv_7/expand/BatchNorm/FusedBatchNorm", "op": "Add", "input": ["module_apply_default/MobilenetV2/expanded_conv_7/expand/BatchNorm/FusedBatchNorm/Mul", "module_apply_default/MobilenetV2/expanded_conv_7/expand/BatchNorm/FusedBatchNorm/Offset"], "attr": {"T": {"type": "DT_FLOAT"}}}, {"name": "module_apply_default/MobilenetV2/expanded_conv_7/expand/Relu6", "op": "Relu6", "input": ["module_apply_default/MobilenetV2/expanded_conv_7/expand/BatchNorm/FusedBatchNorm"], "attr": {"T": {"type": "DT_FLOAT"}}}, {"name": "module_apply_default/MobilenetV2/expanded_conv_7/depthwise/depthwise", "op": "DepthwiseConv2dNative", "input": ["module_apply_default/MobilenetV2/expanded_conv_7/expand/Relu6", "module/MobilenetV2/expanded_conv_7/depthwise/depthwise_weights"], "attr": {"dilations": {"list": {"i": ["1", "1", "1", "1"]}}, "padding": {"s": "U0FNRQ=="}, "T": {"type": "DT_FLOAT"}, "strides": {"list": {"i": ["1", "1", "1", "1"]}}, "data_format": {"s": "TkhXQw=="}}}, {"name": "module_apply_default/MobilenetV2/expanded_conv_7/depthwise/BatchNorm/FusedBatchNorm/Mul", "op": "Mul", "input": ["module_apply_default/MobilenetV2/expanded_conv_7/depthwise/BatchNorm/FusedBatchNorm/Scaled", "module_apply_default/MobilenetV2/expanded_conv_7/depthwise/depthwise"], "attr": {"T": {"type": "DT_FLOAT"}}}, {"name": "module_apply_default/MobilenetV2/expanded_conv_7/depthwise/BatchNorm/FusedBatchNorm", "op": "Add", "input": ["module_apply_default/MobilenetV2/expanded_conv_7/depthwise/BatchNorm/FusedBatchNorm/Mul", "module_apply_default/MobilenetV2/expanded_conv_7/depthwise/BatchNorm/FusedBatchNorm/Offset"], "attr": {"T": {"type": "DT_FLOAT"}}}, {"name": "module_apply_default/MobilenetV2/expanded_conv_7/depthwise/Relu6", "op": "Relu6", "input": ["module_apply_default/MobilenetV2/expanded_conv_7/depthwise/BatchNorm/FusedBatchNorm"], "attr": {"T": {"type": "DT_FLOAT"}}}, {"name": "module_apply_default/MobilenetV2/expanded_conv_7/project/BatchNorm/FusedBatchNorm/Mul", "op": "Conv2D", "input": ["module_apply_default/MobilenetV2/expanded_conv_7/depthwise/Relu6", "module_apply_default/MobilenetV2/expanded_conv_7/project/Conv2D/merged_input"], "attr": {"data_format": {"s": "TkhXQw=="}, "strides": {"list": {"i": ["1", "1", "1", "1"]}}, "explicit_paddings": {"list": {}}, "use_cudnn_on_gpu": {"b": true}, "padding": {"s": "U0FNRQ=="}, "dilations": {"list": {"i": ["1", "1", "1", "1"]}}, "T": {"type": "DT_FLOAT"}}}, {"name": "module_apply_default/MobilenetV2/expanded_conv_7/ArithmeticOptimizer/AddOpsRewrite_Leaf_1_add", "op": "AddN", "input": ["module_apply_default/MobilenetV2/expanded_conv_6/project/BatchNorm/FusedBatchNorm", "module_apply_default/MobilenetV2/expanded_conv_7/project/BatchNorm/FusedBatchNorm/Mul"], "attr": {"T": {"type": "DT_FLOAT"}, "_grappler:ArithmeticOptimizer:AddOpsRewriteStage": {"b": true}, "N": {"i": "2"}}}, {"name": "module_apply_default/MobilenetV2/expanded_conv_7/ArithmeticOptimizer/AddOpsRewrite_add", "op": "Add", "input": ["module_apply_default/MobilenetV2/expanded_conv_7/ArithmeticOptimizer/AddOpsRewrite_Leaf_1_add", "module_apply_default/MobilenetV2/expanded_conv_7/project/BatchNorm/FusedBatchNorm/Offset"], "attr": {"_grappler:ArithmeticOptimizer:AddOpsRewriteStage": {"b": true}, "T": {"type": "DT_FLOAT"}}}, {"name": "module_apply_default/MobilenetV2/expanded_conv_8/expand/BatchNorm/FusedBatchNorm/Mul", "op": "Conv2D", "input": ["module_apply_default/MobilenetV2/expanded_conv_7/ArithmeticOptimizer/AddOpsRewrite_add", "module_apply_default/MobilenetV2/expanded_conv_8/expand/Conv2D/merged_input"], "attr": {"dilations": {"list": {"i": ["1", "1", "1", "1"]}}, "T": {"type": "DT_FLOAT"}, "strides": {"list": {"i": ["1", "1", "1", "1"]}}, "data_format": {"s": "TkhXQw=="}, "explicit_paddings": {"list": {}}, "use_cudnn_on_gpu": {"b": true}, "padding": {"s": "U0FNRQ=="}}}, {"name": "module_apply_default/MobilenetV2/expanded_conv_8/expand/BatchNorm/FusedBatchNorm", "op": "Add", "input": ["module_apply_default/MobilenetV2/expanded_conv_8/expand/BatchNorm/FusedBatchNorm/Mul", "module_apply_default/MobilenetV2/expanded_conv_8/expand/BatchNorm/FusedBatchNorm/Offset"], "attr": {"T": {"type": "DT_FLOAT"}}}, {"name": "module_apply_default/MobilenetV2/expanded_conv_8/expand/Relu6", "op": "Relu6", "input": ["module_apply_default/MobilenetV2/expanded_conv_8/expand/BatchNorm/FusedBatchNorm"], "attr": {"T": {"type": "DT_FLOAT"}}}, {"name": "module_apply_default/MobilenetV2/expanded_conv_8/depthwise/depthwise", "op": "DepthwiseConv2dNative", "input": ["module_apply_default/MobilenetV2/expanded_conv_8/expand/Relu6", "module/MobilenetV2/expanded_conv_8/depthwise/depthwise_weights"], "attr": {"padding": {"s": "U0FNRQ=="}, "dilations": {"list": {"i": ["1", "1", "1", "1"]}}, "T": {"type": "DT_FLOAT"}, "strides": {"list": {"i": ["1", "1", "1", "1"]}}, "data_format": {"s": "TkhXQw=="}}}, {"name": "module_apply_default/MobilenetV2/expanded_conv_8/depthwise/BatchNorm/FusedBatchNorm/Mul", "op": "Mul", "input": ["module_apply_default/MobilenetV2/expanded_conv_8/depthwise/BatchNorm/FusedBatchNorm/Scaled", "module_apply_default/MobilenetV2/expanded_conv_8/depthwise/depthwise"], "attr": {"T": {"type": "DT_FLOAT"}}}, {"name": "module_apply_default/MobilenetV2/expanded_conv_8/depthwise/BatchNorm/FusedBatchNorm", "op": "Add", "input": ["module_apply_default/MobilenetV2/expanded_conv_8/depthwise/BatchNorm/FusedBatchNorm/Mul", "module_apply_default/MobilenetV2/expanded_conv_8/depthwise/BatchNorm/FusedBatchNorm/Offset"], "attr": {"T": {"type": "DT_FLOAT"}}}, {"name": "module_apply_default/MobilenetV2/expanded_conv_8/depthwise/Relu6", "op": "Relu6", "input": ["module_apply_default/MobilenetV2/expanded_conv_8/depthwise/BatchNorm/FusedBatchNorm"], "attr": {"T": {"type": "DT_FLOAT"}}}, {"name": "module_apply_default/MobilenetV2/expanded_conv_8/project/BatchNorm/FusedBatchNorm/Mul", "op": "Conv2D", "input": ["module_apply_default/MobilenetV2/expanded_conv_8/depthwise/Relu6", "module_apply_default/MobilenetV2/expanded_conv_8/project/Conv2D/merged_input"], "attr": {"strides": {"list": {"i": ["1", "1", "1", "1"]}}, "data_format": {"s": "TkhXQw=="}, "explicit_paddings": {"list": {}}, "use_cudnn_on_gpu": {"b": true}, "padding": {"s": "U0FNRQ=="}, "dilations": {"list": {"i": ["1", "1", "1", "1"]}}, "T": {"type": "DT_FLOAT"}}}, {"name": "module_apply_default/MobilenetV2/expanded_conv_8/ArithmeticOptimizer/AddOpsRewrite_Leaf_1_add", "op": "AddN", "input": ["module_apply_default/MobilenetV2/expanded_conv_7/ArithmeticOptimizer/AddOpsRewrite_add", "module_apply_default/MobilenetV2/expanded_conv_8/project/BatchNorm/FusedBatchNorm/Mul"], "attr": {"T": {"type": "DT_FLOAT"}, "_grappler:ArithmeticOptimizer:AddOpsRewriteStage": {"b": true}, "N": {"i": "2"}}}, {"name": "module_apply_default/MobilenetV2/expanded_conv_8/ArithmeticOptimizer/AddOpsRewrite_add", "op": "Add", "input": ["module_apply_default/MobilenetV2/expanded_conv_8/ArithmeticOptimizer/AddOpsRewrite_Leaf_1_add", "module_apply_default/MobilenetV2/expanded_conv_8/project/BatchNorm/FusedBatchNorm/Offset"], "attr": {"T": {"type": "DT_FLOAT"}, "_grappler:ArithmeticOptimizer:AddOpsRewriteStage": {"b": true}}}, {"name": "module_apply_default/MobilenetV2/expanded_conv_9/expand/BatchNorm/FusedBatchNorm/Mul", "op": "Conv2D", "input": ["module_apply_default/MobilenetV2/expanded_conv_8/ArithmeticOptimizer/AddOpsRewrite_add", "module_apply_default/MobilenetV2/expanded_conv_9/expand/Conv2D/merged_input"], "attr": {"padding": {"s": "U0FNRQ=="}, "dilations": {"list": {"i": ["1", "1", "1", "1"]}}, "T": {"type": "DT_FLOAT"}, "strides": {"list": {"i": ["1", "1", "1", "1"]}}, "data_format": {"s": "TkhXQw=="}, "use_cudnn_on_gpu": {"b": true}, "explicit_paddings": {"list": {}}}}, {"name": "module_apply_default/MobilenetV2/expanded_conv_9/expand/BatchNorm/FusedBatchNorm", "op": "Add", "input": ["module_apply_default/MobilenetV2/expanded_conv_9/expand/BatchNorm/FusedBatchNorm/Mul", "module_apply_default/MobilenetV2/expanded_conv_9/expand/BatchNorm/FusedBatchNorm/Offset"], "attr": {"T": {"type": "DT_FLOAT"}}}, {"name": "module_apply_default/MobilenetV2/expanded_conv_9/expand/Relu6", "op": "Relu6", "input": ["module_apply_default/MobilenetV2/expanded_conv_9/expand/BatchNorm/FusedBatchNorm"], "attr": {"T": {"type": "DT_FLOAT"}}}, {"name": "module_apply_default/MobilenetV2/expanded_conv_9/depthwise/depthwise", "op": "DepthwiseConv2dNative", "input": ["module_apply_default/MobilenetV2/expanded_conv_9/expand/Relu6", "module/MobilenetV2/expanded_conv_9/depthwise/depthwise_weights"], "attr": {"padding": {"s": "U0FNRQ=="}, "dilations": {"list": {"i": ["1", "1", "1", "1"]}}, "T": {"type": "DT_FLOAT"}, "strides": {"list": {"i": ["1", "1", "1", "1"]}}, "data_format": {"s": "TkhXQw=="}}}, {"name": "module_apply_default/MobilenetV2/expanded_conv_9/depthwise/BatchNorm/FusedBatchNorm/Mul", "op": "Mul", "input": ["module_apply_default/MobilenetV2/expanded_conv_9/depthwise/BatchNorm/FusedBatchNorm/Scaled", "module_apply_default/MobilenetV2/expanded_conv_9/depthwise/depthwise"], "attr": {"T": {"type": "DT_FLOAT"}}}, {"name": "module_apply_default/MobilenetV2/expanded_conv_9/depthwise/BatchNorm/FusedBatchNorm", "op": "Add", "input": ["module_apply_default/MobilenetV2/expanded_conv_9/depthwise/BatchNorm/FusedBatchNorm/Mul", "module_apply_default/MobilenetV2/expanded_conv_9/depthwise/BatchNorm/FusedBatchNorm/Offset"], "attr": {"T": {"type": "DT_FLOAT"}}}, {"name": "module_apply_default/MobilenetV2/expanded_conv_9/depthwise/Relu6", "op": "Relu6", "input": ["module_apply_default/MobilenetV2/expanded_conv_9/depthwise/BatchNorm/FusedBatchNorm"], "attr": {"T": {"type": "DT_FLOAT"}}}, {"name": "module_apply_default/MobilenetV2/expanded_conv_9/project/BatchNorm/FusedBatchNorm/Mul", "op": "Conv2D", "input": ["module_apply_default/MobilenetV2/expanded_conv_9/depthwise/Relu6", "module_apply_default/MobilenetV2/expanded_conv_9/project/Conv2D/merged_input"], "attr": {"dilations": {"list": {"i": ["1", "1", "1", "1"]}}, "T": {"type": "DT_FLOAT"}, "data_format": {"s": "TkhXQw=="}, "strides": {"list": {"i": ["1", "1", "1", "1"]}}, "explicit_paddings": {"list": {}}, "use_cudnn_on_gpu": {"b": true}, "padding": {"s": "U0FNRQ=="}}}, {"name": "module_apply_default/MobilenetV2/expanded_conv_9/ArithmeticOptimizer/AddOpsRewrite_Leaf_1_add", "op": "AddN", "input": ["module_apply_default/MobilenetV2/expanded_conv_8/ArithmeticOptimizer/AddOpsRewrite_add", "module_apply_default/MobilenetV2/expanded_conv_9/project/BatchNorm/FusedBatchNorm/Mul"], "attr": {"T": {"type": "DT_FLOAT"}, "_grappler:ArithmeticOptimizer:AddOpsRewriteStage": {"b": true}, "N": {"i": "2"}}}, {"name": "module_apply_default/MobilenetV2/expanded_conv_9/ArithmeticOptimizer/AddOpsRewrite_add", "op": "Add", "input": ["module_apply_default/MobilenetV2/expanded_conv_9/ArithmeticOptimizer/AddOpsRewrite_Leaf_1_add", "module_apply_default/MobilenetV2/expanded_conv_9/project/BatchNorm/FusedBatchNorm/Offset"], "attr": {"T": {"type": "DT_FLOAT"}, "_grappler:ArithmeticOptimizer:AddOpsRewriteStage": {"b": true}}}, {"name": "module_apply_default/MobilenetV2/expanded_conv_10/expand/BatchNorm/FusedBatchNorm/Mul", "op": "Conv2D", "input": ["module_apply_default/MobilenetV2/expanded_conv_9/ArithmeticOptimizer/AddOpsRewrite_add", "module_apply_default/MobilenetV2/expanded_conv_10/expand/Conv2D/merged_input"], "attr": {"dilations": {"list": {"i": ["1", "1", "1", "1"]}}, "T": {"type": "DT_FLOAT"}, "strides": {"list": {"i": ["1", "1", "1", "1"]}}, "data_format": {"s": "TkhXQw=="}, "explicit_paddings": {"list": {}}, "use_cudnn_on_gpu": {"b": true}, "padding": {"s": "U0FNRQ=="}}}, {"name": "module_apply_default/MobilenetV2/expanded_conv_10/expand/BatchNorm/FusedBatchNorm", "op": "Add", "input": ["module_apply_default/MobilenetV2/expanded_conv_10/expand/BatchNorm/FusedBatchNorm/Mul", "module_apply_default/MobilenetV2/expanded_conv_10/expand/BatchNorm/FusedBatchNorm/Offset"], "attr": {"T": {"type": "DT_FLOAT"}}}, {"name": "module_apply_default/MobilenetV2/expanded_conv_10/expand/Relu6", "op": "Relu6", "input": ["module_apply_default/MobilenetV2/expanded_conv_10/expand/BatchNorm/FusedBatchNorm"], "attr": {"T": {"type": "DT_FLOAT"}}}, {"name": "module_apply_default/MobilenetV2/expanded_conv_10/depthwise/depthwise", "op": "DepthwiseConv2dNative", "input": ["module_apply_default/MobilenetV2/expanded_conv_10/expand/Relu6", "module/MobilenetV2/expanded_conv_10/depthwise/depthwise_weights"], "attr": {"padding": {"s": "U0FNRQ=="}, "dilations": {"list": {"i": ["1", "1", "1", "1"]}}, "T": {"type": "DT_FLOAT"}, "data_format": {"s": "TkhXQw=="}, "strides": {"list": {"i": ["1", "1", "1", "1"]}}}}, {"name": "module_apply_default/MobilenetV2/expanded_conv_10/depthwise/BatchNorm/FusedBatchNorm/Mul", "op": "Mul", "input": ["module_apply_default/MobilenetV2/expanded_conv_10/depthwise/BatchNorm/FusedBatchNorm/Scaled", "module_apply_default/MobilenetV2/expanded_conv_10/depthwise/depthwise"], "attr": {"T": {"type": "DT_FLOAT"}}}, {"name": "module_apply_default/MobilenetV2/expanded_conv_10/depthwise/BatchNorm/FusedBatchNorm", "op": "Add", "input": ["module_apply_default/MobilenetV2/expanded_conv_10/depthwise/BatchNorm/FusedBatchNorm/Mul", "module_apply_default/MobilenetV2/expanded_conv_10/depthwise/BatchNorm/FusedBatchNorm/Offset"], "attr": {"T": {"type": "DT_FLOAT"}}}, {"name": "module_apply_default/MobilenetV2/expanded_conv_10/depthwise/Relu6", "op": "Relu6", "input": ["module_apply_default/MobilenetV2/expanded_conv_10/depthwise/BatchNorm/FusedBatchNorm"], "attr": {"T": {"type": "DT_FLOAT"}}}, {"name": "module_apply_default/MobilenetV2/expanded_conv_10/project/BatchNorm/FusedBatchNorm/Mul", "op": "Conv2D", "input": ["module_apply_default/MobilenetV2/expanded_conv_10/depthwise/Relu6", "module_apply_default/MobilenetV2/expanded_conv_10/project/Conv2D/merged_input"], "attr": {"dilations": {"list": {"i": ["1", "1", "1", "1"]}}, "T": {"type": "DT_FLOAT"}, "data_format": {"s": "TkhXQw=="}, "strides": {"list": {"i": ["1", "1", "1", "1"]}}, "explicit_paddings": {"list": {}}, "use_cudnn_on_gpu": {"b": true}, "padding": {"s": "U0FNRQ=="}}}, {"name": "module_apply_default/MobilenetV2/expanded_conv_10/project/BatchNorm/FusedBatchNorm", "op": "Add", "input": ["module_apply_default/MobilenetV2/expanded_conv_10/project/BatchNorm/FusedBatchNorm/Mul", "module_apply_default/MobilenetV2/expanded_conv_10/project/BatchNorm/FusedBatchNorm/Offset"], "attr": {"T": {"type": "DT_FLOAT"}}}, {"name": "module_apply_default/MobilenetV2/expanded_conv_11/expand/BatchNorm/FusedBatchNorm/Mul", "op": "Conv2D", "input": ["module_apply_default/MobilenetV2/expanded_conv_10/project/BatchNorm/FusedBatchNorm", "module_apply_default/MobilenetV2/expanded_conv_11/expand/Conv2D/merged_input"], "attr": {"padding": {"s": "U0FNRQ=="}, "dilations": {"list": {"i": ["1", "1", "1", "1"]}}, "T": {"type": "DT_FLOAT"}, "data_format": {"s": "TkhXQw=="}, "strides": {"list": {"i": ["1", "1", "1", "1"]}}, "use_cudnn_on_gpu": {"b": true}, "explicit_paddings": {"list": {}}}}, {"name": "module_apply_default/MobilenetV2/expanded_conv_11/expand/BatchNorm/FusedBatchNorm", "op": "Add", "input": ["module_apply_default/MobilenetV2/expanded_conv_11/expand/BatchNorm/FusedBatchNorm/Mul", "module_apply_default/MobilenetV2/expanded_conv_11/expand/BatchNorm/FusedBatchNorm/Offset"], "attr": {"T": {"type": "DT_FLOAT"}}}, {"name": "module_apply_default/MobilenetV2/expanded_conv_11/expand/Relu6", "op": "Relu6", "input": ["module_apply_default/MobilenetV2/expanded_conv_11/expand/BatchNorm/FusedBatchNorm"], "attr": {"T": {"type": "DT_FLOAT"}}}, {"name": "module_apply_default/MobilenetV2/expanded_conv_11/depthwise/depthwise", "op": "DepthwiseConv2dNative", "input": ["module_apply_default/MobilenetV2/expanded_conv_11/expand/Relu6", "module/MobilenetV2/expanded_conv_11/depthwise/depthwise_weights"], "attr": {"dilations": {"list": {"i": ["1", "1", "1", "1"]}}, "padding": {"s": "U0FNRQ=="}, "T": {"type": "DT_FLOAT"}, "data_format": {"s": "TkhXQw=="}, "strides": {"list": {"i": ["1", "1", "1", "1"]}}}}, {"name": "module_apply_default/MobilenetV2/expanded_conv_11/depthwise/BatchNorm/FusedBatchNorm/Mul", "op": "Mul", "input": ["module_apply_default/MobilenetV2/expanded_conv_11/depthwise/BatchNorm/FusedBatchNorm/Scaled", "module_apply_default/MobilenetV2/expanded_conv_11/depthwise/depthwise"], "attr": {"T": {"type": "DT_FLOAT"}}}, {"name": "module_apply_default/MobilenetV2/expanded_conv_11/depthwise/BatchNorm/FusedBatchNorm", "op": "Add", "input": ["module_apply_default/MobilenetV2/expanded_conv_11/depthwise/BatchNorm/FusedBatchNorm/Mul", "module_apply_default/MobilenetV2/expanded_conv_11/depthwise/BatchNorm/FusedBatchNorm/Offset"], "attr": {"T": {"type": "DT_FLOAT"}}}, {"name": "module_apply_default/MobilenetV2/expanded_conv_11/depthwise/Relu6", "op": "Relu6", "input": ["module_apply_default/MobilenetV2/expanded_conv_11/depthwise/BatchNorm/FusedBatchNorm"], "attr": {"T": {"type": "DT_FLOAT"}}}, {"name": "module_apply_default/MobilenetV2/expanded_conv_11/project/BatchNorm/FusedBatchNorm/Mul", "op": "Conv2D", "input": ["module_apply_default/MobilenetV2/expanded_conv_11/depthwise/Relu6", "module_apply_default/MobilenetV2/expanded_conv_11/project/Conv2D/merged_input"], "attr": {"dilations": {"list": {"i": ["1", "1", "1", "1"]}}, "T": {"type": "DT_FLOAT"}, "strides": {"list": {"i": ["1", "1", "1", "1"]}}, "data_format": {"s": "TkhXQw=="}, "explicit_paddings": {"list": {}}, "use_cudnn_on_gpu": {"b": true}, "padding": {"s": "U0FNRQ=="}}}, {"name": "module_apply_default/MobilenetV2/expanded_conv_11/ArithmeticOptimizer/AddOpsRewrite_Leaf_1_add", "op": "AddN", "input": ["module_apply_default/MobilenetV2/expanded_conv_10/project/BatchNorm/FusedBatchNorm", "module_apply_default/MobilenetV2/expanded_conv_11/project/BatchNorm/FusedBatchNorm/Mul"], "attr": {"T": {"type": "DT_FLOAT"}, "_grappler:ArithmeticOptimizer:AddOpsRewriteStage": {"b": true}, "N": {"i": "2"}}}, {"name": "module_apply_default/MobilenetV2/expanded_conv_11/ArithmeticOptimizer/AddOpsRewrite_add", "op": "Add", "input": ["module_apply_default/MobilenetV2/expanded_conv_11/ArithmeticOptimizer/AddOpsRewrite_Leaf_1_add", "module_apply_default/MobilenetV2/expanded_conv_11/project/BatchNorm/FusedBatchNorm/Offset"], "attr": {"T": {"type": "DT_FLOAT"}, "_grappler:ArithmeticOptimizer:AddOpsRewriteStage": {"b": true}}}, {"name": "module_apply_default/MobilenetV2/expanded_conv_12/expand/BatchNorm/FusedBatchNorm/Mul", "op": "Conv2D", "input": ["module_apply_default/MobilenetV2/expanded_conv_11/ArithmeticOptimizer/AddOpsRewrite_add", "module_apply_default/MobilenetV2/expanded_conv_12/expand/Conv2D/merged_input"], "attr": {"explicit_paddings": {"list": {}}, "use_cudnn_on_gpu": {"b": true}, "padding": {"s": "U0FNRQ=="}, "dilations": {"list": {"i": ["1", "1", "1", "1"]}}, "T": {"type": "DT_FLOAT"}, "data_format": {"s": "TkhXQw=="}, "strides": {"list": {"i": ["1", "1", "1", "1"]}}}}, {"name": "module_apply_default/MobilenetV2/expanded_conv_12/expand/BatchNorm/FusedBatchNorm", "op": "Add", "input": ["module_apply_default/MobilenetV2/expanded_conv_12/expand/BatchNorm/FusedBatchNorm/Mul", "module_apply_default/MobilenetV2/expanded_conv_12/expand/BatchNorm/FusedBatchNorm/Offset"], "attr": {"T": {"type": "DT_FLOAT"}}}, {"name": "module_apply_default/MobilenetV2/expanded_conv_12/expand/Relu6", "op": "Relu6", "input": ["module_apply_default/MobilenetV2/expanded_conv_12/expand/BatchNorm/FusedBatchNorm"], "attr": {"T": {"type": "DT_FLOAT"}}}, {"name": "module_apply_default/MobilenetV2/expanded_conv_12/depthwise/depthwise", "op": "DepthwiseConv2dNative", "input": ["module_apply_default/MobilenetV2/expanded_conv_12/expand/Relu6", "module/MobilenetV2/expanded_conv_12/depthwise/depthwise_weights"], "attr": {"dilations": {"list": {"i": ["1", "1", "1", "1"]}}, "padding": {"s": "U0FNRQ=="}, "T": {"type": "DT_FLOAT"}, "strides": {"list": {"i": ["1", "1", "1", "1"]}}, "data_format": {"s": "TkhXQw=="}}}, {"name": "module_apply_default/MobilenetV2/expanded_conv_12/depthwise/BatchNorm/FusedBatchNorm/Mul", "op": "Mul", "input": ["module_apply_default/MobilenetV2/expanded_conv_12/depthwise/BatchNorm/FusedBatchNorm/Scaled", "module_apply_default/MobilenetV2/expanded_conv_12/depthwise/depthwise"], "attr": {"T": {"type": "DT_FLOAT"}}}, {"name": "module_apply_default/MobilenetV2/expanded_conv_12/depthwise/BatchNorm/FusedBatchNorm", "op": "Add", "input": ["module_apply_default/MobilenetV2/expanded_conv_12/depthwise/BatchNorm/FusedBatchNorm/Mul", "module_apply_default/MobilenetV2/expanded_conv_12/depthwise/BatchNorm/FusedBatchNorm/Offset"], "attr": {"T": {"type": "DT_FLOAT"}}}, {"name": "module_apply_default/MobilenetV2/expanded_conv_12/depthwise/Relu6", "op": "Relu6", "input": ["module_apply_default/MobilenetV2/expanded_conv_12/depthwise/BatchNorm/FusedBatchNorm"], "attr": {"T": {"type": "DT_FLOAT"}}}, {"name": "module_apply_default/MobilenetV2/expanded_conv_12/project/BatchNorm/FusedBatchNorm/Mul", "op": "Conv2D", "input": ["module_apply_default/MobilenetV2/expanded_conv_12/depthwise/Relu6", "module_apply_default/MobilenetV2/expanded_conv_12/project/Conv2D/merged_input"], "attr": {"dilations": {"list": {"i": ["1", "1", "1", "1"]}}, "T": {"type": "DT_FLOAT"}, "data_format": {"s": "TkhXQw=="}, "strides": {"list": {"i": ["1", "1", "1", "1"]}}, "use_cudnn_on_gpu": {"b": true}, "explicit_paddings": {"list": {}}, "padding": {"s": "U0FNRQ=="}}}, {"name": "module_apply_default/MobilenetV2/expanded_conv_12/ArithmeticOptimizer/AddOpsRewrite_Leaf_1_add", "op": "AddN", "input": ["module_apply_default/MobilenetV2/expanded_conv_11/ArithmeticOptimizer/AddOpsRewrite_add", "module_apply_default/MobilenetV2/expanded_conv_12/project/BatchNorm/FusedBatchNorm/Mul"], "attr": {"_grappler:ArithmeticOptimizer:AddOpsRewriteStage": {"b": true}, "N": {"i": "2"}, "T": {"type": "DT_FLOAT"}}}, {"name": "module_apply_default/MobilenetV2/expanded_conv_12/ArithmeticOptimizer/AddOpsRewrite_add", "op": "Add", "input": ["module_apply_default/MobilenetV2/expanded_conv_12/ArithmeticOptimizer/AddOpsRewrite_Leaf_1_add", "module_apply_default/MobilenetV2/expanded_conv_12/project/BatchNorm/FusedBatchNorm/Offset"], "attr": {"T": {"type": "DT_FLOAT"}, "_grappler:ArithmeticOptimizer:AddOpsRewriteStage": {"b": true}}}, {"name": "module_apply_default/MobilenetV2/expanded_conv_13/expand/BatchNorm/FusedBatchNorm/Mul", "op": "Conv2D", "input": ["module_apply_default/MobilenetV2/expanded_conv_12/ArithmeticOptimizer/AddOpsRewrite_add", "module_apply_default/MobilenetV2/expanded_conv_13/expand/Conv2D/merged_input"], "attr": {"data_format": {"s": "TkhXQw=="}, "strides": {"list": {"i": ["1", "1", "1", "1"]}}, "explicit_paddings": {"list": {}}, "use_cudnn_on_gpu": {"b": true}, "padding": {"s": "U0FNRQ=="}, "dilations": {"list": {"i": ["1", "1", "1", "1"]}}, "T": {"type": "DT_FLOAT"}}}, {"name": "module_apply_default/MobilenetV2/expanded_conv_13/expand/BatchNorm/FusedBatchNorm", "op": "Add", "input": ["module_apply_default/MobilenetV2/expanded_conv_13/expand/BatchNorm/FusedBatchNorm/Mul", "module_apply_default/MobilenetV2/expanded_conv_13/expand/BatchNorm/FusedBatchNorm/Offset"], "attr": {"T": {"type": "DT_FLOAT"}}}, {"name": "module_apply_default/MobilenetV2/expanded_conv_13/expand/Relu6", "op": "Relu6", "input": ["module_apply_default/MobilenetV2/expanded_conv_13/expand/BatchNorm/FusedBatchNorm"], "attr": {"T": {"type": "DT_FLOAT"}}}, {"name": "module_apply_default/MobilenetV2/expanded_conv_13/depthwise/depthwise", "op": "DepthwiseConv2dNative", "input": ["module_apply_default/MobilenetV2/expanded_conv_13/expand/Relu6", "module/MobilenetV2/expanded_conv_13/depthwise/depthwise_weights"], "attr": {"padding": {"s": "U0FNRQ=="}, "dilations": {"list": {"i": ["1", "1", "1", "1"]}}, "T": {"type": "DT_FLOAT"}, "strides": {"list": {"i": ["1", "2", "2", "1"]}}, "data_format": {"s": "TkhXQw=="}}}, {"name": "module_apply_default/MobilenetV2/expanded_conv_13/depthwise/BatchNorm/FusedBatchNorm/Mul", "op": "Mul", "input": ["module_apply_default/MobilenetV2/expanded_conv_13/depthwise/BatchNorm/FusedBatchNorm/Scaled", "module_apply_default/MobilenetV2/expanded_conv_13/depthwise/depthwise"], "attr": {"T": {"type": "DT_FLOAT"}}}, {"name": "module_apply_default/MobilenetV2/expanded_conv_13/depthwise/BatchNorm/FusedBatchNorm", "op": "Add", "input": ["module_apply_default/MobilenetV2/expanded_conv_13/depthwise/BatchNorm/FusedBatchNorm/Mul", "module_apply_default/MobilenetV2/expanded_conv_13/depthwise/BatchNorm/FusedBatchNorm/Offset"], "attr": {"T": {"type": "DT_FLOAT"}}}, {"name": "module_apply_default/MobilenetV2/expanded_conv_13/depthwise/Relu6", "op": "Relu6", "input": ["module_apply_default/MobilenetV2/expanded_conv_13/depthwise/BatchNorm/FusedBatchNorm"], "attr": {"T": {"type": "DT_FLOAT"}}}, {"name": "module_apply_default/MobilenetV2/expanded_conv_13/project/BatchNorm/FusedBatchNorm/Mul", "op": "Conv2D", "input": ["module_apply_default/MobilenetV2/expanded_conv_13/depthwise/Relu6", "module_apply_default/MobilenetV2/expanded_conv_13/project/Conv2D/merged_input"], "attr": {"dilations": {"list": {"i": ["1", "1", "1", "1"]}}, "T": {"type": "DT_FLOAT"}, "strides": {"list": {"i": ["1", "1", "1", "1"]}}, "data_format": {"s": "TkhXQw=="}, "use_cudnn_on_gpu": {"b": true}, "explicit_paddings": {"list": {}}, "padding": {"s": "U0FNRQ=="}}}, {"name": "module_apply_default/MobilenetV2/expanded_conv_13/project/BatchNorm/FusedBatchNorm", "op": "Add", "input": ["module_apply_default/MobilenetV2/expanded_conv_13/project/BatchNorm/FusedBatchNorm/Mul", "module_apply_default/MobilenetV2/expanded_conv_13/project/BatchNorm/FusedBatchNorm/Offset"], "attr": {"T": {"type": "DT_FLOAT"}}}, {"name": "module_apply_default/MobilenetV2/expanded_conv_14/expand/BatchNorm/FusedBatchNorm/Mul", "op": "Conv2D", "input": ["module_apply_default/MobilenetV2/expanded_conv_13/project/BatchNorm/FusedBatchNorm", "module_apply_default/MobilenetV2/expanded_conv_14/expand/Conv2D/merged_input"], "attr": {"data_format": {"s": "TkhXQw=="}, "strides": {"list": {"i": ["1", "1", "1", "1"]}}, "use_cudnn_on_gpu": {"b": true}, "explicit_paddings": {"list": {}}, "padding": {"s": "U0FNRQ=="}, "dilations": {"list": {"i": ["1", "1", "1", "1"]}}, "T": {"type": "DT_FLOAT"}}}, {"name": "module_apply_default/MobilenetV2/expanded_conv_14/expand/BatchNorm/FusedBatchNorm", "op": "Add", "input": ["module_apply_default/MobilenetV2/expanded_conv_14/expand/BatchNorm/FusedBatchNorm/Mul", "module_apply_default/MobilenetV2/expanded_conv_14/expand/BatchNorm/FusedBatchNorm/Offset"], "attr": {"T": {"type": "DT_FLOAT"}}}, {"name": "module_apply_default/MobilenetV2/expanded_conv_14/expand/Relu6", "op": "Relu6", "input": ["module_apply_default/MobilenetV2/expanded_conv_14/expand/BatchNorm/FusedBatchNorm"], "attr": {"T": {"type": "DT_FLOAT"}}}, {"name": "module_apply_default/MobilenetV2/expanded_conv_14/depthwise/depthwise", "op": "DepthwiseConv2dNative", "input": ["module_apply_default/MobilenetV2/expanded_conv_14/expand/Relu6", "module/MobilenetV2/expanded_conv_14/depthwise/depthwise_weights"], "attr": {"dilations": {"list": {"i": ["1", "1", "1", "1"]}}, "padding": {"s": "U0FNRQ=="}, "T": {"type": "DT_FLOAT"}, "data_format": {"s": "TkhXQw=="}, "strides": {"list": {"i": ["1", "1", "1", "1"]}}}}, {"name": "module_apply_default/MobilenetV2/expanded_conv_14/depthwise/BatchNorm/FusedBatchNorm/Mul", "op": "Mul", "input": ["module_apply_default/MobilenetV2/expanded_conv_14/depthwise/BatchNorm/FusedBatchNorm/Scaled", "module_apply_default/MobilenetV2/expanded_conv_14/depthwise/depthwise"], "attr": {"T": {"type": "DT_FLOAT"}}}, {"name": "module_apply_default/MobilenetV2/expanded_conv_14/depthwise/BatchNorm/FusedBatchNorm", "op": "Add", "input": ["module_apply_default/MobilenetV2/expanded_conv_14/depthwise/BatchNorm/FusedBatchNorm/Mul", "module_apply_default/MobilenetV2/expanded_conv_14/depthwise/BatchNorm/FusedBatchNorm/Offset"], "attr": {"T": {"type": "DT_FLOAT"}}}, {"name": "module_apply_default/MobilenetV2/expanded_conv_14/depthwise/Relu6", "op": "Relu6", "input": ["module_apply_default/MobilenetV2/expanded_conv_14/depthwise/BatchNorm/FusedBatchNorm"], "attr": {"T": {"type": "DT_FLOAT"}}}, {"name": "module_apply_default/MobilenetV2/expanded_conv_14/project/BatchNorm/FusedBatchNorm/Mul", "op": "Conv2D", "input": ["module_apply_default/MobilenetV2/expanded_conv_14/depthwise/Relu6", "module_apply_default/MobilenetV2/expanded_conv_14/project/Conv2D/merged_input"], "attr": {"dilations": {"list": {"i": ["1", "1", "1", "1"]}}, "T": {"type": "DT_FLOAT"}, "data_format": {"s": "TkhXQw=="}, "strides": {"list": {"i": ["1", "1", "1", "1"]}}, "use_cudnn_on_gpu": {"b": true}, "explicit_paddings": {"list": {}}, "padding": {"s": "U0FNRQ=="}}}, {"name": "module_apply_default/MobilenetV2/expanded_conv_14/ArithmeticOptimizer/AddOpsRewrite_Leaf_1_add", "op": "AddN", "input": ["module_apply_default/MobilenetV2/expanded_conv_13/project/BatchNorm/FusedBatchNorm", "module_apply_default/MobilenetV2/expanded_conv_14/project/BatchNorm/FusedBatchNorm/Mul"], "attr": {"_grappler:ArithmeticOptimizer:AddOpsRewriteStage": {"b": true}, "N": {"i": "2"}, "T": {"type": "DT_FLOAT"}}}, {"name": "module_apply_default/MobilenetV2/expanded_conv_14/ArithmeticOptimizer/AddOpsRewrite_add", "op": "Add", "input": ["module_apply_default/MobilenetV2/expanded_conv_14/ArithmeticOptimizer/AddOpsRewrite_Leaf_1_add", "module_apply_default/MobilenetV2/expanded_conv_14/project/BatchNorm/FusedBatchNorm/Offset"], "attr": {"_grappler:ArithmeticOptimizer:AddOpsRewriteStage": {"b": true}, "T": {"type": "DT_FLOAT"}}}, {"name": "module_apply_default/MobilenetV2/expanded_conv_15/expand/BatchNorm/FusedBatchNorm/Mul", "op": "Conv2D", "input": ["module_apply_default/MobilenetV2/expanded_conv_14/ArithmeticOptimizer/AddOpsRewrite_add", "module_apply_default/MobilenetV2/expanded_conv_15/expand/Conv2D/merged_input"], "attr": {"dilations": {"list": {"i": ["1", "1", "1", "1"]}}, "T": {"type": "DT_FLOAT"}, "data_format": {"s": "TkhXQw=="}, "strides": {"list": {"i": ["1", "1", "1", "1"]}}, "use_cudnn_on_gpu": {"b": true}, "explicit_paddings": {"list": {}}, "padding": {"s": "U0FNRQ=="}}}, {"name": "module_apply_default/MobilenetV2/expanded_conv_15/expand/BatchNorm/FusedBatchNorm", "op": "Add", "input": ["module_apply_default/MobilenetV2/expanded_conv_15/expand/BatchNorm/FusedBatchNorm/Mul", "module_apply_default/MobilenetV2/expanded_conv_15/expand/BatchNorm/FusedBatchNorm/Offset"], "attr": {"T": {"type": "DT_FLOAT"}}}, {"name": "module_apply_default/MobilenetV2/expanded_conv_15/expand/Relu6", "op": "Relu6", "input": ["module_apply_default/MobilenetV2/expanded_conv_15/expand/BatchNorm/FusedBatchNorm"], "attr": {"T": {"type": "DT_FLOAT"}}}, {"name": "module_apply_default/MobilenetV2/expanded_conv_15/depthwise/depthwise", "op": "DepthwiseConv2dNative", "input": ["module_apply_default/MobilenetV2/expanded_conv_15/expand/Relu6", "module/MobilenetV2/expanded_conv_15/depthwise/depthwise_weights"], "attr": {"dilations": {"list": {"i": ["1", "1", "1", "1"]}}, "padding": {"s": "U0FNRQ=="}, "T": {"type": "DT_FLOAT"}, "data_format": {"s": "TkhXQw=="}, "strides": {"list": {"i": ["1", "1", "1", "1"]}}}}, {"name": "module_apply_default/MobilenetV2/expanded_conv_15/depthwise/BatchNorm/FusedBatchNorm/Mul", "op": "Mul", "input": ["module_apply_default/MobilenetV2/expanded_conv_15/depthwise/BatchNorm/FusedBatchNorm/Scaled", "module_apply_default/MobilenetV2/expanded_conv_15/depthwise/depthwise"], "attr": {"T": {"type": "DT_FLOAT"}}}, {"name": "module_apply_default/MobilenetV2/expanded_conv_15/depthwise/BatchNorm/FusedBatchNorm", "op": "Add", "input": ["module_apply_default/MobilenetV2/expanded_conv_15/depthwise/BatchNorm/FusedBatchNorm/Mul", "module_apply_default/MobilenetV2/expanded_conv_15/depthwise/BatchNorm/FusedBatchNorm/Offset"], "attr": {"T": {"type": "DT_FLOAT"}}}, {"name": "module_apply_default/MobilenetV2/expanded_conv_15/depthwise/Relu6", "op": "Relu6", "input": ["module_apply_default/MobilenetV2/expanded_conv_15/depthwise/BatchNorm/FusedBatchNorm"], "attr": {"T": {"type": "DT_FLOAT"}}}, {"name": "module_apply_default/MobilenetV2/expanded_conv_15/project/BatchNorm/FusedBatchNorm/Mul", "op": "Conv2D", "input": ["module_apply_default/MobilenetV2/expanded_conv_15/depthwise/Relu6", "module_apply_default/MobilenetV2/expanded_conv_15/project/Conv2D/merged_input"], "attr": {"padding": {"s": "U0FNRQ=="}, "dilations": {"list": {"i": ["1", "1", "1", "1"]}}, "T": {"type": "DT_FLOAT"}, "strides": {"list": {"i": ["1", "1", "1", "1"]}}, "data_format": {"s": "TkhXQw=="}, "use_cudnn_on_gpu": {"b": true}, "explicit_paddings": {"list": {}}}}, {"name": "module_apply_default/MobilenetV2/expanded_conv_15/ArithmeticOptimizer/AddOpsRewrite_Leaf_1_add", "op": "AddN", "input": ["module_apply_default/MobilenetV2/expanded_conv_14/ArithmeticOptimizer/AddOpsRewrite_add", "module_apply_default/MobilenetV2/expanded_conv_15/project/BatchNorm/FusedBatchNorm/Mul"], "attr": {"T": {"type": "DT_FLOAT"}, "_grappler:ArithmeticOptimizer:AddOpsRewriteStage": {"b": true}, "N": {"i": "2"}}}, {"name": "module_apply_default/MobilenetV2/expanded_conv_15/ArithmeticOptimizer/AddOpsRewrite_add", "op": "Add", "input": ["module_apply_default/MobilenetV2/expanded_conv_15/ArithmeticOptimizer/AddOpsRewrite_Leaf_1_add", "module_apply_default/MobilenetV2/expanded_conv_15/project/BatchNorm/FusedBatchNorm/Offset"], "attr": {"T": {"type": "DT_FLOAT"}, "_grappler:ArithmeticOptimizer:AddOpsRewriteStage": {"b": true}}}, {"name": "module_apply_default/MobilenetV2/expanded_conv_16/expand/BatchNorm/FusedBatchNorm/Mul", "op": "Conv2D", "input": ["module_apply_default/MobilenetV2/expanded_conv_15/ArithmeticOptimizer/AddOpsRewrite_add", "module_apply_default/MobilenetV2/expanded_conv_16/expand/Conv2D/merged_input"], "attr": {"dilations": {"list": {"i": ["1", "1", "1", "1"]}}, "T": {"type": "DT_FLOAT"}, "data_format": {"s": "TkhXQw=="}, "strides": {"list": {"i": ["1", "1", "1", "1"]}}, "use_cudnn_on_gpu": {"b": true}, "explicit_paddings": {"list": {}}, "padding": {"s": "U0FNRQ=="}}}, {"name": "module_apply_default/MobilenetV2/expanded_conv_16/expand/BatchNorm/FusedBatchNorm", "op": "Add", "input": ["module_apply_default/MobilenetV2/expanded_conv_16/expand/BatchNorm/FusedBatchNorm/Mul", "module_apply_default/MobilenetV2/expanded_conv_16/expand/BatchNorm/FusedBatchNorm/Offset"], "attr": {"T": {"type": "DT_FLOAT"}}}, {"name": "module_apply_default/MobilenetV2/expanded_conv_16/expand/Relu6", "op": "Relu6", "input": ["module_apply_default/MobilenetV2/expanded_conv_16/expand/BatchNorm/FusedBatchNorm"], "attr": {"T": {"type": "DT_FLOAT"}}}, {"name": "module_apply_default/MobilenetV2/expanded_conv_16/depthwise/depthwise", "op": "DepthwiseConv2dNative", "input": ["module_apply_default/MobilenetV2/expanded_conv_16/expand/Relu6", "module/MobilenetV2/expanded_conv_16/depthwise/depthwise_weights"], "attr": {"dilations": {"list": {"i": ["1", "1", "1", "1"]}}, "padding": {"s": "U0FNRQ=="}, "T": {"type": "DT_FLOAT"}, "data_format": {"s": "TkhXQw=="}, "strides": {"list": {"i": ["1", "1", "1", "1"]}}}}, {"name": "module_apply_default/MobilenetV2/expanded_conv_16/depthwise/BatchNorm/FusedBatchNorm/Mul", "op": "Mul", "input": ["module_apply_default/MobilenetV2/expanded_conv_16/depthwise/BatchNorm/FusedBatchNorm/Scaled", "module_apply_default/MobilenetV2/expanded_conv_16/depthwise/depthwise"], "attr": {"T": {"type": "DT_FLOAT"}}}, {"name": "module_apply_default/MobilenetV2/expanded_conv_16/depthwise/BatchNorm/FusedBatchNorm", "op": "Add", "input": ["module_apply_default/MobilenetV2/expanded_conv_16/depthwise/BatchNorm/FusedBatchNorm/Mul", "module_apply_default/MobilenetV2/expanded_conv_16/depthwise/BatchNorm/FusedBatchNorm/Offset"], "attr": {"T": {"type": "DT_FLOAT"}}}, {"name": "module_apply_default/MobilenetV2/expanded_conv_16/depthwise/Relu6", "op": "Relu6", "input": ["module_apply_default/MobilenetV2/expanded_conv_16/depthwise/BatchNorm/FusedBatchNorm"], "attr": {"T": {"type": "DT_FLOAT"}}}, {"name": "module_apply_default/MobilenetV2/expanded_conv_16/project/BatchNorm/FusedBatchNorm/Mul", "op": "Conv2D", "input": ["module_apply_default/MobilenetV2/expanded_conv_16/depthwise/Relu6", "module_apply_default/MobilenetV2/expanded_conv_16/project/Conv2D/merged_input"], "attr": {"padding": {"s": "U0FNRQ=="}, "dilations": {"list": {"i": ["1", "1", "1", "1"]}}, "T": {"type": "DT_FLOAT"}, "data_format": {"s": "TkhXQw=="}, "strides": {"list": {"i": ["1", "1", "1", "1"]}}, "explicit_paddings": {"list": {}}, "use_cudnn_on_gpu": {"b": true}}}, {"name": "module_apply_default/MobilenetV2/expanded_conv_16/project/BatchNorm/FusedBatchNorm", "op": "Add", "input": ["module_apply_default/MobilenetV2/expanded_conv_16/project/BatchNorm/FusedBatchNorm/Mul", "module_apply_default/MobilenetV2/expanded_conv_16/project/BatchNorm/FusedBatchNorm/Offset"], "attr": {"T": {"type": "DT_FLOAT"}}}, {"name": "module_apply_default/MobilenetV2/Conv_1/BatchNorm/FusedBatchNorm/Mul", "op": "Conv2D", "input": ["module_apply_default/MobilenetV2/expanded_conv_16/project/BatchNorm/FusedBatchNorm", "module_apply_default/MobilenetV2/Conv_1/Conv2D/merged_input"], "attr": {"strides": {"list": {"i": ["1", "1", "1", "1"]}}, "data_format": {"s": "TkhXQw=="}, "explicit_paddings": {"list": {}}, "use_cudnn_on_gpu": {"b": true}, "padding": {"s": "U0FNRQ=="}, "dilations": {"list": {"i": ["1", "1", "1", "1"]}}, "T": {"type": "DT_FLOAT"}}}, {"name": "module_apply_default/MobilenetV2/Conv_1/BatchNorm/FusedBatchNorm", "op": "Add", "input": ["module_apply_default/MobilenetV2/Conv_1/BatchNorm/FusedBatchNorm/Mul", "module_apply_default/MobilenetV2/Conv_1/BatchNorm/FusedBatchNorm/Offset"], "attr": {"T": {"type": "DT_FLOAT"}}}, {"name": "module_apply_default/MobilenetV2/Conv_1/Relu6", "op": "Relu6", "input": ["module_apply_default/MobilenetV2/Conv_1/BatchNorm/FusedBatchNorm"], "attr": {"T": {"type": "DT_FLOAT"}}}, {"name": "module_apply_default/MobilenetV2/Logits/AvgPool", "op": "AvgPool", "input": ["module_apply_default/MobilenetV2/Conv_1/Relu6"], "attr": {"strides": {"list": {"i": ["1", "1", "1", "1"]}}, "data_format": {"s": "TkhXQw=="}, "ksize": {"list": {"i": ["1", "7", "7", "1"]}}, "padding": {"s": "VkFMSUQ="}, "T": {"type": "DT_FLOAT"}}}, {"name": "module_apply_default/MobilenetV2/Logits/Conv2d_1c_1x1/Conv2D", "op": "Conv2D", "input": ["module_apply_default/MobilenetV2/Logits/AvgPool", "module/MobilenetV2/Logits/Conv2d_1c_1x1/weights"], "attr": {"dilations": {"list": {"i": ["1", "1", "1", "1"]}}, "T": {"type": "DT_FLOAT"}, "strides": {"list": {"i": ["1", "1", "1", "1"]}}, "data_format": {"s": "TkhXQw=="}, "explicit_paddings": {"list": {}}, "use_cudnn_on_gpu": {"b": true}, "padding": {"s": "U0FNRQ=="}}}, {"name": "module_apply_default/MobilenetV2/Logits/Conv2d_1c_1x1/BiasAdd", "op": "BiasAdd", "input": ["module_apply_default/MobilenetV2/Logits/Conv2d_1c_1x1/Conv2D", "module/MobilenetV2/Logits/Conv2d_1c_1x1/biases"], "attr": {"T": {"type": "DT_FLOAT"}, "data_format": {"s": "TkhXQw=="}}}, {"name": "module_apply_default/MobilenetV2/Logits/Squeeze", "op": "Squeeze", "input": ["module_apply_default/MobilenetV2/Logits/Conv2d_1c_1x1/BiasAdd"], "attr": {"T": {"type": "DT_FLOAT"}, "squeeze_dims": {"list": {"i": ["1", "2"]}}}}, {"name": "input/BottleneckInputPlaceholder", "op": "PlaceholderWithDefault", "input": ["module_apply_default/MobilenetV2/Logits/Squeeze"], "attr": {"shape": {"shape": {"dim": [{"size": "-1"}, {"size": "1001"}]}}, "dtype": {"type": "DT_FLOAT"}}}, {"name": "final_retrain_ops/Wx_plus_b/MatMul", "op": "MatMul", "input": ["input/BottleneckInputPlaceholder", "final_retrain_ops/weights/final_weights"], "attr": {"transpose_a": {"b": false}, "transpose_b": {"b": false}, "T": {"type": "DT_FLOAT"}}}, {"name": "final_retrain_ops/Wx_plus_b/add", "op": "Add", "input": ["final_retrain_ops/Wx_plus_b/MatMul", "final_retrain_ops/biases/final_biases"], "attr": {"T": {"type": "DT_FLOAT"}}}, {"name": "final_result", "op": "Softmax", "input": ["final_retrain_ops/Wx_plus_b/add"], "attr": {"T": {"type": "DT_FLOAT"}}}], "library": {}, "versions": {"producer": 38}}, "weightsManifest": [{"paths": ["group1-shard1of4.bin", "group1-shard2of4.bin", "group1-shard3of4.bin", "group1-shard4of4.bin"], "weights": [{"name": "final_retrain_ops/biases/final_biases", "shape": [42], "dtype": "float32"}, {"name": "final_retrain_ops/weights/final_weights", "shape": [1001, 42], "dtype": "float32"}, {"name": "module/MobilenetV2/Logits/Conv2d_1c_1x1/biases", "shape": [1001], "dtype": "float32"}, {"name": "module/MobilenetV2/Logits/Conv2d_1c_1x1/weights", "shape": [1, 1, 1280, 1001], "dtype": "float32"}, {"name": "module_apply_default/MobilenetV2/Conv_1/BatchNorm/FusedBatchNorm/Offset", "shape": [1280], "dtype": "float32"}, {"name": "module_apply_default/MobilenetV2/Conv_1/Conv2D/merged_input", "shape": [1, 1, 320, 1280], "dtype": "float32"}, {"name": "module_apply_default/MobilenetV2/expanded_conv_16/project/BatchNorm/FusedBatchNorm/Offset", "shape": [320], "dtype": "float32"}, {"name": "module_apply_default/MobilenetV2/expanded_conv_16/project/Conv2D/merged_input", "shape": [1, 1, 960, 320], "dtype": "float32"}, {"name": "module_apply_default/MobilenetV2/expanded_conv_16/depthwise/BatchNorm/FusedBatchNorm/Offset", "shape": [960], "dtype": "float32"}, {"name": "module/MobilenetV2/expanded_conv_16/depthwise/depthwise_weights", "shape": [3, 3, 960, 1], "dtype": "float32"}, {"name": "module_apply_default/MobilenetV2/expanded_conv_16/expand/BatchNorm/FusedBatchNorm/Offset", "shape": [960], "dtype": "float32"}, {"name": "module_apply_default/MobilenetV2/expanded_conv_16/expand/Conv2D/merged_input", "shape": [1, 1, 160, 960], "dtype": "float32"}, {"name": "module_apply_default/MobilenetV2/expanded_conv_15/project/BatchNorm/FusedBatchNorm/Offset", "shape": [160], "dtype": "float32"}, {"name": "module_apply_default/MobilenetV2/expanded_conv_15/project/Conv2D/merged_input", "shape": [1, 1, 960, 160], "dtype": "float32"}, {"name": "module_apply_default/MobilenetV2/expanded_conv_15/depthwise/BatchNorm/FusedBatchNorm/Offset", "shape": [960], "dtype": "float32"}, {"name": "module/MobilenetV2/expanded_conv_15/depthwise/depthwise_weights", "shape": [3, 3, 960, 1], "dtype": "float32"}, {"name": "module_apply_default/MobilenetV2/expanded_conv_15/expand/BatchNorm/FusedBatchNorm/Offset", "shape": [960], "dtype": "float32"}, {"name": "module_apply_default/MobilenetV2/expanded_conv_15/expand/Conv2D/merged_input", "shape": [1, 1, 160, 960], "dtype": "float32"}, {"name": "module_apply_default/MobilenetV2/expanded_conv_14/project/BatchNorm/FusedBatchNorm/Offset", "shape": [160], "dtype": "float32"}, {"name": "module_apply_default/MobilenetV2/expanded_conv_14/project/Conv2D/merged_input", "shape": [1, 1, 960, 160], "dtype": "float32"}, {"name": "module_apply_default/MobilenetV2/expanded_conv_14/depthwise/BatchNorm/FusedBatchNorm/Offset", "shape": [960], "dtype": "float32"}, {"name": "module/MobilenetV2/expanded_conv_14/depthwise/depthwise_weights", "shape": [3, 3, 960, 1], "dtype": "float32"}, {"name": "module_apply_default/MobilenetV2/expanded_conv_14/expand/BatchNorm/FusedBatchNorm/Offset", "shape": [960], "dtype": "float32"}, {"name": "module_apply_default/MobilenetV2/expanded_conv_14/expand/Conv2D/merged_input", "shape": [1, 1, 160, 960], "dtype": "float32"}, {"name": "module_apply_default/MobilenetV2/expanded_conv_13/project/BatchNorm/FusedBatchNorm/Offset", "shape": [160], "dtype": "float32"}, {"name": "module_apply_default/MobilenetV2/expanded_conv_13/project/Conv2D/merged_input", "shape": [1, 1, 576, 160], "dtype": "float32"}, {"name": "module_apply_default/MobilenetV2/expanded_conv_13/depthwise/BatchNorm/FusedBatchNorm/Offset", "shape": [576], "dtype": "float32"}, {"name": "module/MobilenetV2/expanded_conv_13/depthwise/depthwise_weights", "shape": [3, 3, 576, 1], "dtype": "float32"}, {"name": "module_apply_default/MobilenetV2/expanded_conv_13/expand/BatchNorm/FusedBatchNorm/Offset", "shape": [576], "dtype": "float32"}, {"name": "module_apply_default/MobilenetV2/expanded_conv_13/expand/Conv2D/merged_input", "shape": [1, 1, 96, 576], "dtype": "float32"}, {"name": "module_apply_default/MobilenetV2/expanded_conv_12/project/BatchNorm/FusedBatchNorm/Offset", "shape": [96], "dtype": "float32"}, {"name": "module_apply_default/MobilenetV2/expanded_conv_12/project/Conv2D/merged_input", "shape": [1, 1, 576, 96], "dtype": "float32"}, {"name": "module_apply_default/MobilenetV2/expanded_conv_12/depthwise/BatchNorm/FusedBatchNorm/Offset", "shape": [576], "dtype": "float32"}, {"name": "module/MobilenetV2/expanded_conv_12/depthwise/depthwise_weights", "shape": [3, 3, 576, 1], "dtype": "float32"}, {"name": "module_apply_default/MobilenetV2/expanded_conv_12/expand/BatchNorm/FusedBatchNorm/Offset", "shape": [576], "dtype": "float32"}, {"name": "module_apply_default/MobilenetV2/expanded_conv_12/expand/Conv2D/merged_input", "shape": [1, 1, 96, 576], "dtype": "float32"}, {"name": "module_apply_default/MobilenetV2/expanded_conv_11/project/BatchNorm/FusedBatchNorm/Offset", "shape": [96], "dtype": "float32"}, {"name": "module_apply_default/MobilenetV2/expanded_conv_11/project/Conv2D/merged_input", "shape": [1, 1, 576, 96], "dtype": "float32"}, {"name": "module_apply_default/MobilenetV2/expanded_conv_11/depthwise/BatchNorm/FusedBatchNorm/Offset", "shape": [576], "dtype": "float32"}, {"name": "module/MobilenetV2/expanded_conv_11/depthwise/depthwise_weights", "shape": [3, 3, 576, 1], "dtype": "float32"}, {"name": "module_apply_default/MobilenetV2/expanded_conv_11/expand/BatchNorm/FusedBatchNorm/Offset", "shape": [576], "dtype": "float32"}, {"name": "module_apply_default/MobilenetV2/expanded_conv_11/expand/Conv2D/merged_input", "shape": [1, 1, 96, 576], "dtype": "float32"}, {"name": "module_apply_default/MobilenetV2/expanded_conv_10/project/BatchNorm/FusedBatchNorm/Offset", "shape": [96], "dtype": "float32"}, {"name": "module_apply_default/MobilenetV2/expanded_conv_10/project/Conv2D/merged_input", "shape": [1, 1, 384, 96], "dtype": "float32"}, {"name": "module_apply_default/MobilenetV2/expanded_conv_10/depthwise/BatchNorm/FusedBatchNorm/Offset", "shape": [384], "dtype": "float32"}, {"name": "module/MobilenetV2/expanded_conv_10/depthwise/depthwise_weights", "shape": [3, 3, 384, 1], "dtype": "float32"}, {"name": "module_apply_default/MobilenetV2/expanded_conv_10/expand/BatchNorm/FusedBatchNorm/Offset", "shape": [384], "dtype": "float32"}, {"name": "module_apply_default/MobilenetV2/expanded_conv_10/expand/Conv2D/merged_input", "shape": [1, 1, 64, 384], "dtype": "float32"}, {"name": "module_apply_default/MobilenetV2/expanded_conv_9/project/BatchNorm/FusedBatchNorm/Offset", "shape": [64], "dtype": "float32"}, {"name": "module_apply_default/MobilenetV2/expanded_conv_9/project/Conv2D/merged_input", "shape": [1, 1, 384, 64], "dtype": "float32"}, {"name": "module_apply_default/MobilenetV2/expanded_conv_9/depthwise/BatchNorm/FusedBatchNorm/Offset", "shape": [384], "dtype": "float32"}, {"name": "module/MobilenetV2/expanded_conv_9/depthwise/depthwise_weights", "shape": [3, 3, 384, 1], "dtype": "float32"}, {"name": "module_apply_default/MobilenetV2/expanded_conv_9/expand/BatchNorm/FusedBatchNorm/Offset", "shape": [384], "dtype": "float32"}, {"name": "module_apply_default/MobilenetV2/expanded_conv_9/expand/Conv2D/merged_input", "shape": [1, 1, 64, 384], "dtype": "float32"}, {"name": "module_apply_default/MobilenetV2/expanded_conv_8/project/BatchNorm/FusedBatchNorm/Offset", "shape": [64], "dtype": "float32"}, {"name": "module_apply_default/MobilenetV2/expanded_conv_8/project/Conv2D/merged_input", "shape": [1, 1, 384, 64], "dtype": "float32"}, {"name": "module_apply_default/MobilenetV2/expanded_conv_8/depthwise/BatchNorm/FusedBatchNorm/Offset", "shape": [384], "dtype": "float32"}, {"name": "module/MobilenetV2/expanded_conv_8/depthwise/depthwise_weights", "shape": [3, 3, 384, 1], "dtype": "float32"}, {"name": "module_apply_default/MobilenetV2/expanded_conv_8/expand/BatchNorm/FusedBatchNorm/Offset", "shape": [384], "dtype": "float32"}, {"name": "module_apply_default/MobilenetV2/expanded_conv_8/expand/Conv2D/merged_input", "shape": [1, 1, 64, 384], "dtype": "float32"}, {"name": "module_apply_default/MobilenetV2/expanded_conv_7/project/BatchNorm/FusedBatchNorm/Offset", "shape": [64], "dtype": "float32"}, {"name": "module_apply_default/MobilenetV2/expanded_conv_7/project/Conv2D/merged_input", "shape": [1, 1, 384, 64], "dtype": "float32"}, {"name": "module_apply_default/MobilenetV2/expanded_conv_7/depthwise/BatchNorm/FusedBatchNorm/Offset", "shape": [384], "dtype": "float32"}, {"name": "module/MobilenetV2/expanded_conv_7/depthwise/depthwise_weights", "shape": [3, 3, 384, 1], "dtype": "float32"}, {"name": "module_apply_default/MobilenetV2/expanded_conv_7/expand/BatchNorm/FusedBatchNorm/Offset", "shape": [384], "dtype": "float32"}, {"name": "module_apply_default/MobilenetV2/expanded_conv_7/expand/Conv2D/merged_input", "shape": [1, 1, 64, 384], "dtype": "float32"}, {"name": "module_apply_default/MobilenetV2/expanded_conv_6/project/BatchNorm/FusedBatchNorm/Offset", "shape": [64], "dtype": "float32"}, {"name": "module_apply_default/MobilenetV2/expanded_conv_6/project/Conv2D/merged_input", "shape": [1, 1, 192, 64], "dtype": "float32"}, {"name": "module_apply_default/MobilenetV2/expanded_conv_6/depthwise/BatchNorm/FusedBatchNorm/Offset", "shape": [192], "dtype": "float32"}, {"name": "module/MobilenetV2/expanded_conv_6/depthwise/depthwise_weights", "shape": [3, 3, 192, 1], "dtype": "float32"}, {"name": "module_apply_default/MobilenetV2/expanded_conv_6/expand/BatchNorm/FusedBatchNorm/Offset", "shape": [192], "dtype": "float32"}, {"name": "module_apply_default/MobilenetV2/expanded_conv_6/expand/Conv2D/merged_input", "shape": [1, 1, 32, 192], "dtype": "float32"}, {"name": "module_apply_default/MobilenetV2/expanded_conv_5/project/BatchNorm/FusedBatchNorm/Offset", "shape": [32], "dtype": "float32"}, {"name": "module_apply_default/MobilenetV2/expanded_conv_5/project/Conv2D/merged_input", "shape": [1, 1, 192, 32], "dtype": "float32"}, {"name": "module_apply_default/MobilenetV2/expanded_conv_5/depthwise/BatchNorm/FusedBatchNorm/Offset", "shape": [192], "dtype": "float32"}, {"name": "module/MobilenetV2/expanded_conv_5/depthwise/depthwise_weights", "shape": [3, 3, 192, 1], "dtype": "float32"}, {"name": "module_apply_default/MobilenetV2/expanded_conv_5/expand/BatchNorm/FusedBatchNorm/Offset", "shape": [192], "dtype": "float32"}, {"name": "module_apply_default/MobilenetV2/expanded_conv_5/expand/Conv2D/merged_input", "shape": [1, 1, 32, 192], "dtype": "float32"}, {"name": "module_apply_default/MobilenetV2/expanded_conv_4/project/BatchNorm/FusedBatchNorm/Offset", "shape": [32], "dtype": "float32"}, {"name": "module_apply_default/MobilenetV2/expanded_conv_4/project/Conv2D/merged_input", "shape": [1, 1, 192, 32], "dtype": "float32"}, {"name": "module_apply_default/MobilenetV2/expanded_conv_4/depthwise/BatchNorm/FusedBatchNorm/Offset", "shape": [192], "dtype": "float32"}, {"name": "module/MobilenetV2/expanded_conv_4/depthwise/depthwise_weights", "shape": [3, 3, 192, 1], "dtype": "float32"}, {"name": "module_apply_default/MobilenetV2/expanded_conv_4/expand/BatchNorm/FusedBatchNorm/Offset", "shape": [192], "dtype": "float32"}, {"name": "module_apply_default/MobilenetV2/expanded_conv_4/expand/Conv2D/merged_input", "shape": [1, 1, 32, 192], "dtype": "float32"}, {"name": "module_apply_default/MobilenetV2/expanded_conv_3/project/BatchNorm/FusedBatchNorm/Offset", "shape": [32], "dtype": "float32"}, {"name": "module_apply_default/MobilenetV2/expanded_conv_3/project/Conv2D/merged_input", "shape": [1, 1, 144, 32], "dtype": "float32"}, {"name": "module_apply_default/MobilenetV2/expanded_conv_3/depthwise/BatchNorm/FusedBatchNorm/Offset", "shape": [144], "dtype": "float32"}, {"name": "module/MobilenetV2/expanded_conv_3/depthwise/depthwise_weights", "shape": [3, 3, 144, 1], "dtype": "float32"}, {"name": "module_apply_default/MobilenetV2/expanded_conv_3/expand/BatchNorm/FusedBatchNorm/Offset", "shape": [144], "dtype": "float32"}, {"name": "module_apply_default/MobilenetV2/expanded_conv_3/expand/Conv2D/merged_input", "shape": [1, 1, 24, 144], "dtype": "float32"}, {"name": "module_apply_default/MobilenetV2/expanded_conv_2/project/BatchNorm/FusedBatchNorm/Offset", "shape": [24], "dtype": "float32"}, {"name": "module_apply_default/MobilenetV2/expanded_conv_2/project/Conv2D/merged_input", "shape": [1, 1, 144, 24], "dtype": "float32"}, {"name": "module_apply_default/MobilenetV2/expanded_conv_2/depthwise/BatchNorm/FusedBatchNorm/Offset", "shape": [144], "dtype": "float32"}, {"name": "module/MobilenetV2/expanded_conv_2/depthwise/depthwise_weights", "shape": [3, 3, 144, 1], "dtype": "float32"}, {"name": "module_apply_default/MobilenetV2/expanded_conv_2/expand/BatchNorm/FusedBatchNorm/Offset", "shape": [144], "dtype": "float32"}, {"name": "module_apply_default/MobilenetV2/expanded_conv_2/expand/Conv2D/merged_input", "shape": [1, 1, 24, 144], "dtype": "float32"}, {"name": "module_apply_default/MobilenetV2/expanded_conv_1/project/BatchNorm/FusedBatchNorm/Offset", "shape": [24], "dtype": "float32"}, {"name": "module_apply_default/MobilenetV2/expanded_conv_1/project/Conv2D/merged_input", "shape": [1, 1, 96, 24], "dtype": "float32"}, {"name": "module_apply_default/MobilenetV2/expanded_conv_1/depthwise/BatchNorm/FusedBatchNorm/Offset", "shape": [96], "dtype": "float32"}, {"name": "module/MobilenetV2/expanded_conv_1/depthwise/depthwise_weights", "shape": [3, 3, 96, 1], "dtype": "float32"}, {"name": "module_apply_default/MobilenetV2/expanded_conv_1/expand/BatchNorm/FusedBatchNorm/Offset", "shape": [96], "dtype": "float32"}, {"name": "module_apply_default/MobilenetV2/expanded_conv_1/expand/Conv2D/merged_input", "shape": [1, 1, 16, 96], "dtype": "float32"}, {"name": "module_apply_default/MobilenetV2/expanded_conv/project/BatchNorm/FusedBatchNorm/Offset", "shape": [16], "dtype": "float32"}, {"name": "module_apply_default/MobilenetV2/expanded_conv/project/Conv2D/merged_input", "shape": [1, 1, 32, 16], "dtype": "float32"}, {"name": "module_apply_default/MobilenetV2/expanded_conv/depthwise/BatchNorm/FusedBatchNorm/Offset", "shape": [32], "dtype": "float32"}, {"name": "module/MobilenetV2/expanded_conv/depthwise/depthwise_weights", "shape": [3, 3, 32, 1], "dtype": "float32"}, {"name": "module_apply_default/MobilenetV2/Conv/BatchNorm/FusedBatchNorm/Offset", "shape": [32], "dtype": "float32"}, {"name": "module_apply_default/MobilenetV2/Conv/Conv2D/merged_input", "shape": [3, 3, 3, 32], "dtype": "float32"}, {"name": "module_apply_default/hub_input/Sub/y", "shape": [], "dtype": "float32"}, {"name": "module_apply_default/hub_input/Mul/y", "shape": [], "dtype": "float32"}, {"name": "module_apply_default/MobilenetV2/expanded_conv/depthwise/BatchNorm/FusedBatchNorm/Scaled", "shape": [32], "dtype": "float32"}, {"name": "module_apply_default/MobilenetV2/expanded_conv_1/depthwise/BatchNorm/FusedBatchNorm/Scaled", "shape": [96], "dtype": "float32"}, {"name": "module_apply_default/MobilenetV2/expanded_conv_2/depthwise/BatchNorm/FusedBatchNorm/Scaled", "shape": [144], "dtype": "float32"}, {"name": "module_apply_default/MobilenetV2/expanded_conv_3/depthwise/BatchNorm/FusedBatchNorm/Scaled", "shape": [144], "dtype": "float32"}, {"name": "module_apply_default/MobilenetV2/expanded_conv_4/depthwise/BatchNorm/FusedBatchNorm/Scaled", "shape": [192], "dtype": "float32"}, {"name": "module_apply_default/MobilenetV2/expanded_conv_5/depthwise/BatchNorm/FusedBatchNorm/Scaled", "shape": [192], "dtype": "float32"}, {"name": "module_apply_default/MobilenetV2/expanded_conv_6/depthwise/BatchNorm/FusedBatchNorm/Scaled", "shape": [192], "dtype": "float32"}, {"name": "module_apply_default/MobilenetV2/expanded_conv_7/depthwise/BatchNorm/FusedBatchNorm/Scaled", "shape": [384], "dtype": "float32"}, {"name": "module_apply_default/MobilenetV2/expanded_conv_8/depthwise/BatchNorm/FusedBatchNorm/Scaled", "shape": [384], "dtype": "float32"}, {"name": "module_apply_default/MobilenetV2/expanded_conv_9/depthwise/BatchNorm/FusedBatchNorm/Scaled", "shape": [384], "dtype": "float32"}, {"name": "module_apply_default/MobilenetV2/expanded_conv_10/depthwise/BatchNorm/FusedBatchNorm/Scaled", "shape": [384], "dtype": "float32"}, {"name": "module_apply_default/MobilenetV2/expanded_conv_11/depthwise/BatchNorm/FusedBatchNorm/Scaled", "shape": [576], "dtype": "float32"}, {"name": "module_apply_default/MobilenetV2/expanded_conv_12/depthwise/BatchNorm/FusedBatchNorm/Scaled", "shape": [576], "dtype": "float32"}, {"name": "module_apply_default/MobilenetV2/expanded_conv_13/depthwise/BatchNorm/FusedBatchNorm/Scaled", "shape": [576], "dtype": "float32"}, {"name": "module_apply_default/MobilenetV2/expanded_conv_14/depthwise/BatchNorm/FusedBatchNorm/Scaled", "shape": [960], "dtype": "float32"}, {"name": "module_apply_default/MobilenetV2/expanded_conv_15/depthwise/BatchNorm/FusedBatchNorm/Scaled", "shape": [960], "dtype": "float32"}, {"name": "module_apply_default/MobilenetV2/expanded_conv_16/depthwise/BatchNorm/FusedBatchNorm/Scaled", "shape": [960], "dtype": "float32"}]}]}